team-09/checkpoints/best_seed2.pt (torch, 190197 bytes, 14 tensors)

encoder.norm.weight f4 [20]
0	0x3f777e29	0.9667688
1	0x3f812ea0	1.0092354
2	0x3f81c1a5	1.0137221
3	0x3f7a48a6	0.977671
4	0x3f7eac50	0.9948168
5	0x3f7fcf26	0.9992546
6	0x3f799e16	0.97506845
7	0x3f762712	0.96153367
8	0x3f7c8943	0.98646945
9	0x3f7d83c3	0.9902918
10	0x3f806be9	1.0032932
11	0x3f80687c	1.0031886
12	0x3f89b5ce	1.0758607
13	0x3f8a1e07	1.0790414
14	0x3f7dea0e	0.99185264
15	0x3f839bc9	1.0281917
16	0x3f8282a1	1.0196115
17	0x3f7ee650	0.9957018
18	0x3f789aa4	0.9711096
19	0x3f7e7265	0.993933

encoder.norm.bias f4 [20]
0	0xbd89d2cf	-0.06729662
1	0x3baf003e	0.005340605
2	0x3cef9189	0.029244201
3	0xbcfad89a	-0.030620862
4	0xbd041adc	-0.032252178
5	0xbd088012	-0.033325262
6	0xbd6f082c	-0.058357403
7	0xbd6c27a7	-0.057655003
8	0xbd12da60	-0.03585279
9	0xbd428f1e	-0.04749977
10	0xbd391ecd	-0.04519539
11	0xbd60f2cf	-0.05491906
12	0x3dd7cc47	0.1053701
13	0x3dd66b27	0.104696564
14	0xbd24a3ff	-0.04019546
15	0xbc95101b	-0.018196156
16	0xbcf74955	-0.030186335
17	0xbce65301	-0.028115751
18	0xbd82face	-0.063954934
19	0xbd468665	-0.048468012

encoder.rnn.weight_ih_l0 f4 [192, 20]
0	0x3cee6c1e	0.029104289
1	0xbc996440	-0.01872456
2	0x3d2d688e	0.04233604
3	0xbc0b82b1	-0.008515046
4	0xbcc1b7b1	-0.023647161
5	0xbd4d833f	-0.050173994
6	0xbdbe3615	-0.09287659
7	0xbe379954	-0.17929584
8	0xbd3f409d	-0.04669248
9	0xbe3523f7	-0.17689501
10	0xbd78429f	-0.06061041
11	0xbd8e11c4	-0.06936982
12	0x3ded32cc	0.11581954
13	0x3e6e941b	0.23298685
14	0xbcc7f7c0	-0.024410129
15	0xbba6d2eb	-0.0050910613
16	0xbcc33e71	-0.023833485
17	0xbe18d59a	-0.14925233
18	0xbe040d89	-0.12895788
19	0x3d34e09e	0.044159524
20	0xbe4e5cc7	-0.20152579
21	0xbd95352f	-0.072855346
22	0x3c154fbd	0.009113249
23	0x3de94e07	0.11391836
24	0xbcbbea10	-0.022938758
25	0x3cae0db4	0.021246769
26	0xbc3737cf	-0.011182739
27	0xbd9d2a24	-0.07674053
28	0xbd9cc0cb	-0.0765396
29	0xbd4c9d58	-0.049954742
30	0xbdf788ca	-0.12086637
31	0xbdc315ce	-0.09525643
32	0x3e2a155b	0.16609709
33	0x3e63a79d	0.22231908
34	0xbc85fd28	-0.016356066
35	0xbd4dcb3c	-0.050242648
36	0x3d3db924	0.046319142
37	0xbd6a95ef	-0.057271894
38	0xbd0d3750	-0.03447658
39	0xbd9fec9a	-0.078088
40	0xbe009be7	-0.12559472
41	0xbe3ec768	-0.18630755
42	0x3d835a1c	0.064136714
43	0x3d7b49f4	0.061349824
44	0x3e0e8dcf	0.13921283
45	0x3e325fe3	0.1741939
46	0x3e249ea1	0.16076137
47	0x3de9f23d	0.114231564
48	0x3e123370	0.14277434
49	0x3dd73036	0.105072424
50	0x3e3f3fe8	0.18676722
51	0x3e6d6d24	0.23186165
52	0x3d874f59	0.06606931
53	0x3d573340	0.05253911
54	0x3d88a925	0.06672887
55	0x3e0ade74	0.13561422
56	0x3dad52fc	0.08463094
57	0x3e3b2361	0.18275215
58	0x3e0540d6	0.13013014
59	0x3e6cf2fe	0.23139569
60	0x3d4d20c0	0.05008006
61	0xbdd4f799	-0.10398788
62	0x3d1b5a1b	0.03792773
63	0x3e0b6474	0.13612539
64	0x3d696f95	0.05699118
65	0xbd76a791	-0.060218398
66	0xbc55b6d3	-0.013044077
67	0xbe2f3c32	-0.17112806
68	0xbdb9ebe2	-0.09078194
69	0x3c28389b	0.010267402
70	0xbe2795a5	-0.16365679
71	0x3d6f192b	0.05837361
72	0x3caf1d18	0.021376178
73	0x3e0cac1c	0.1373753
74	0xbd15e725	-0.03659739
75	0xbc305dec	-0.01076458
76	0xbd39f1aa	-0.045396484
77	0xbe324ec9	-0.17412867
78	0xbda4edaf	-0.08053147
79	0xbe0a72e9	-0.13520397
80	0x3e1bcd18	0.15214956
81	0x3ce93b13	0.028470552
82	0xbe180377	-0.14845072
83	0x3dbdfbeb	0.09276565
84	0x3cb2af8a	0.02181222
85	0xbdac8021	-0.08422876
86	0xbd0f66ac	-0.035010025
87	0x3d0742b1	0.033022586
88	0xbdaea2c1	-0.085271366
89	0xbde1fc51	-0.11034454
90	0xbcdedeba	-0.027205814
91	0xbda727c2	-0.0816188
92	0x3d8edffe	0.06976317
93	0xbbb21fa7	-0.005435902
94	0x3dc66623	0.0968745
95	0x3dad3726	0.08457784
96	0xbe006fee	-0.12542698
97	0xbddcb54d	-0.10776768
98	0xbdced312	-0.10098852
99	0xbd7d5678	-0.06185004
100	0xbcabde13	-0.020979917
101	0x3cdccb2f	0.026952354
102	0xbd8a3af3	-0.06749525
103	0x3c15f12c	0.009151738
104	0x3e327d89	0.174307
105	0x3e1673ce	0.14692613
106	0x3e3d6e5c	0.1849913
107	0x3e4bf273	0.19916706
108	0xbc8f5c96	-0.017500203
109	0x3dc376fc	0.09544179
110	0x3e63a3bf	0.22230433
111	0x3cbd7074	0.02312491
112	0xbe4d60f4	-0.20056516
113	0xbe14691e	-0.14493224
114	0xbbfc9ef7	-0.00770938
115	0x3d5d3c4c	0.05401258
116	0x3da139d6	0.078723595
117	0x3e518383	0.20460324
118	0x3dd23f9c	0.10266039
119	0x3e290c03	0.16508488
120	0x3e37f04a	0.17962757
121	0x3e366de6	0.1781536
122	0xbde2a787	-0.110671096
123	0x3d39daf5	0.04537483
124	0x3d373ab3	0.044733714
125	0xbdf97469	-0.121804066
126	0xbda80007	-0.0820313
127	0x3d470e3b	0.048597556
128	0xbe155967	-0.14584886
129	0xbe29bf94	-0.16576988
130	0xbded3d93	-0.1158401
131	0x3ce8811d	0.028381879
132	0xbe106711	-0.14101817
133	0xbe56124b	-0.20905416
134	0x3d0a49c0	0.03376174
135	0x3d3ccab2	0.046091743
136	0x3c07258c	0.008248698
137	0xbe15908e	-0.14605924
138	0x3db85ffb	0.09002682
139	0xbd34d77d	-0.04415082
140	0xbd9da34f	-0.07697164
141	0x3bcd39fd	0.0062630163
142	0x3d48c63c	0.049017176
143	0x3da89006	0.08230595
144	0xbda10380	-0.07861996
145	0x3be1f462	0.006895588
146	0xbe41b1d3	-0.18915491
147	0x3c274418	0.010209106
148	0x3d4e3ab5	0.050348956
149	0xbe1b486e	-0.15164348
150	0xbd3dbb0e	-0.046320967
151	0xbdc868fd	-0.0978565
152	0xbd1b0820	-0.037849545
153	0x3d81b4b6	0.06333296
154	0xbdcffccf	-0.10155641
155	0xbe290f8a	-0.16509834
156	0xbe2c2e9f	-0.1681466
157	0xbd9bb625	-0.07603101
158	0x3d2a35e3	0.041555297
159	0xbd09acda	-0.03361211
160	0xbdc9461c	-0.098278254
161	0x3da08e76	0.07839672
162	0xbbb26417	-0.0054440605
163	0xbdbce921	-0.09224153
164	0xbd7e19d7	-0.06203636
165	0x3c335175	0.010944714
166	0xbe0d34c4	-0.1378966
167	0xbd8ff14d	-0.07028446
168	0xbdfc453a	-0.123178914
169	0xbe1f79d4	-0.15573817
170	0xbe07ea4e	-0.13272974
171	0xbd4de758	-0.050269455
172	0x3e557e70	0.20849013
173	0x3dd17df4	0.10229102
174	0xbe313dd5	-0.17308743
175	0xbd2bcf46	-0.04194572
176	0xbe34d08f	-0.17657684
177	0xbd78ef19	-0.060774896
178	0x3cf28e71	0.029608937
179	0xbc5e6691	-0.013574258
180	0xbdfbdfab	-0.12298521
181	0xbd915b7f	-0.070975296
182	0x3d4038ec	0.046929285
183	0x3d925e7f	0.0714693
184	0xbda7b5cc	-0.08188972
185	0xbd2d0e5b	-0.04225002
186	0xbc9a2cb6	-0.018820148
187	0x3d9479fc	0.07249829
188	0x3e110b68	0.14164507
189	0x3da3815d	0.079836585
190	0x3da377af	0.07981812
191	0xbd96fa32	-0.0737194
192	0x3db7a1a6	0.08966379
193	0x3d538622	0.05164159
194	0xbc351f93	-0.011054891
195	0xbc835a69	-0.016034322
196	0x3d849e01	0.06475449
197	0xbd0dbbb3	-0.034602832
198	0x3d94f0ec	0.07272515
199	0x3e033142	0.12811759
200	0xbc80e57b	-0.015734425
201	0xb7a4045c	-1.9552353e-05
202	0xbda33f78	-0.0797109
203	0xbdd8ed07	-0.105920844
204	0xbdaba15d	-0.08380387
205	0x3bd250d3	0.0064183264
206	0xbcbd3683	-0.023097282
207	0xbde15cd1	-0.110040314
208	0xbdab45ff	-0.0836296
209	0xbe042b72	-0.12907198
210	0xbe2b69a8	-0.16739523
211	0xbdd2f050	-0.10299742
212	0x3cd46ccd	0.025930787
213	0xbd4cbf06	-0.04998686
214	0xbe1d1b27	-0.15342389
215	0xbcc63cfa	-0.024198998
216	0xbd57ae1f	-0.05265629
217	0xbde15909	-0.1100331
218	0xbd0fa1ed	-0.035066534
219	0x3d367d17	0.04455289
220	0x3cecce9d	0.028907115
221	0xbd669380	-0.05629301
222	0x3dca7f87	0.09887605
223	0x3de5faa3	0.11229446
224	0xbc9c3bd1	-0.019071491
225	0xbd809d70	-0.06280029
226	0xbd8719f9	-0.06596751
227	0x3dc474ac	0.09592566
228	0x3d5fa1bb	0.054597598
229	0xbda7e03e	-0.08197068
230	0xbb4b0cd6	-0.0030982993
231	0x3c6b9222	0.0143781025
232	0xba8f1bb3	-0.0010918289
233	0xbd2595f5	-0.040426213
234	0xbda535bf	-0.08066892
235	0xbc197fd7	-0.009368858
236	0xbd31cfc4	-0.04341103
237	0xbd4738d2	-0.048638172
238	0xbd9ce08c	-0.076600164
239	0xbd8e4ff7	-0.06948846
240	0xbd85b533	-0.06528702
241	0x3d5f1792	0.054465838
242	0xbe00e67c	-0.12587923
243	0xbd9f1f0b	-0.07769593
244	0x3d36c3ec	0.04462044
245	0xbcd6a461	-0.026201429
246	0x3b829f59	0.003986281
247	0xbc29f56d	-0.0103734555
248	0xbde289e2	-0.11061455
249	0xbe13269b	-0.14370196
250	0xbe15b310	-0.14619088
251	0xbd976896	-0.07392995
252	0x3ded7c60	0.11595988
253	0xbd15fef8	-0.03662011
254	0xbe0c1546	-0.1367999
255	0x3ce016a3	0.027354544

encoder.rnn.weight_hh_l0 f4 [192, 64]
0	0xbe22d4da	-0.15901509
1	0xbdb911d9	-0.09036607
2	0x3da0ba94	0.07848087
3	0x3e0ed6e3	0.1394916
4	0x3d4327de	0.047645442
5	0xbe324b24	-0.17411476
6	0x3dd6a3fc	0.10480496
7	0xbdab998d	-0.08378897
8	0xbe21184d	-0.15731926
9	0x3d329f28	0.043608814
10	0xbdcc4620	-0.09974313
11	0xbda4041f	-0.080085985
12	0xbdc1b2a1	-0.09457899
13	0xbd241477	-0.04005858
14	0x3db3951c	0.08768675
15	0xbd1c6ffb	-0.03819273
16	0x3d33bb13	0.04387958
17	0x3e018315	0.1264766
18	0x3e084218	0.13306463
19	0x3dff009a	0.124512866
20	0x3d8278a1	0.063706644
21	0xbd9f71e2	-0.07785393
22	0x3d0f9e4c	0.035063073
23	0x3d16a4d4	0.036778286
24	0x3d561ed7	0.052275505
25	0x3d9736f5	0.07383529
26	0xbca2674f	-0.019824652
27	0xbe0da870	-0.13833785
28	0x3e009c09	0.12559523
29	0x3d896e21	0.067104585
30	0xbdab9ee3	-0.083799146
31	0x3d8886ae	0.06666313
32	0xbae92b25	-0.0017789347
33	0x3ba81f6d	0.0051306994
34	0xbda6c9a5	-0.081439294
35	0x3cc51e34	0.024062254
36	0x3e04b2d4	0.12958843
37	0x39ddce34	0.00042306038
38	0x3c852555	0.016253153
39	0xbc951aa2	-0.018201176
40	0xbde47e41	-0.111568935
41	0x3d74946f	0.05971187
42	0x3ce5ba8b	0.028043052
43	0x3da33e71	0.07970894
44	0xbdec9185	-0.11551193
45	0xbdba8eb9	-0.091092534
46	0x3d72e081	0.059296135
47	0x3bf75069	0.0075474274
48	0x3d6bacd6	0.057537876
49	0x3dc3df95	0.09564129
50	0x3dbf7d97	0.09350126
51	0x3ddbf553	0.10740151
52	0xbcf88d46	-0.030340802
53	0x3df86d86	0.12130265
54	0xbcf983c8	-0.030458346
55	0xbd5d6ecb	-0.05406074
56	0x3da2150c	0.079141706
57	0x3d8cf444	0.068825275
58	0xbd88839d	-0.06665728
59	0xbdf91163	-0.121615194
60	0x3cabaf43	0.020957595
61	0x3d487ee8	0.048949152
62	0x3db58eb3	0.08865108
63	0x3d7dae97	0.06193408
64	0x3dd0135a	0.10159941
65	0xbde8b989	-0.11363513
66	0x3dd20799	0.102553554
67	0xbdb2d00b	-0.08731087
68	0xbbba8eac	-0.0056932773
69	0x3c553d40	0.013015091
70	0xbda240a8	-0.079224885
71	0xbca81994	-0.02052001
72	0xbddef0c3	-0.108857654
73	0xbd43c14a	-0.047791757
74	0xbd6ce7e9	-0.057838354
75	0xbb4e82e5	-0.0031511125
76	0xbcd6d330	-0.026223749
77	0x3d8b4f74	0.06802264
78	0x3cb8bdda	0.022551466
79	0xbccd42ca	-0.025056262
80	0x3d80b8a3	0.06285217
81	0x3d8b09e1	0.067889936
82	0x3d536394	0.051608637
83	0x3dde9f48	0.10870224
84	0x3df28525	0.118418016
85	0xbe4b8e99	-0.19878615
86	0xbdefdc72	-0.117119685
87	0x3caee8e6	0.021351289
88	0x3d72bf73	0.05926461
89	0x3cd3be2f	0.025847523
90	0xbdecee0d	-0.11568842
91	0x3d652ce9	0.055951033
92	0xbbec6983	-0.0072147264
93	0x3c0467db	0.008081402
94	0xbe192190	-0.1495421
95	0xbda5f469	-0.08103258
96	0xbc72df84	-0.014823798
97	0xbe11e7f8	-0.14248645
98	0xbd607dda	-0.05480752
99	0x3cbfc1f0	0.023407906
100	0xbdcbf5e6	-0.09959011
101	0x3d019675	0.031637628
102	0x3db3d6f5	0.08781234
103	0xb99312cc	-0.0002805203
104	0xbdfb6fc9	-0.12277181
105	0xbce5c092	-0.028045926
106	0xbde0fe9c	-0.10986063
107	0x3c4503af	0.012024804
108	0xbe032490	-0.12806916
109	0x3d7ff2a2	0.062487252
110	0xbd892335	-0.06696168
111	0x3d3f25b5	0.04666682
112	0xbd5f4b4b	-0.054515164
113	0xbd2fae72	-0.042890973
114	0x3e274468	0.16334689
115	0x3c0b4f8e	0.008502854
116	0xbd225ebc	-0.039641127
117	0x3d65e9e3	0.056131255
118	0xbce6ec90	-0.028188974
119	0xbe6aa881	-0.22915842
120	0xbe53c24c	-0.20679587
121	0x3d5ce9e9	0.05393401
122	0xbc739065	-0.014865969
123	0xbdb81665	-0.089886464
124	0xbd90864f	-0.07056867
125	0xbd567eed	-0.05236714
126	0x3d8b2a7e	0.06795214
127	0xbdbf6e96	-0.093472645
128	0xbce4a3ee	-0.027910199
129	0x3db4f39a	0.08835526
130	0x3c6895fc	0.014195915
131	0x3d2215dd	0.03957163
132	0xbc56bd4f	-0.013106658
133	0x3db18a1f	0.08668923
134	0x3c94d490	0.018167764
135	0xbe009e35	-0.12560351
136	0x3d838e2a	0.064236
137	0xbd3bce9c	-0.045851335
138	0x3d783ed2	0.060606785
139	0xbd5ca2e3	-0.05386628
140	0x3cbb79ea	0.022885282
141	0xbe3254dd	-0.17415185
142	0x3d680506	0.056645416
143	0x3c601643	0.013677183
144	0x3e25ec43	0.16203408
145	0xbd59454b	-0.0530446
146	0xbab3b56e	-0.0013710686
147	0x3c8010fe	0.015633103
148	0xbda1297e	-0.07869242
149	0x3e5f909c	0.21832508
150	0xbd8a305b	-0.06747504
151	0xbd81e1b0	-0.063418746
152	0x3bfaa007	0.0076484713
153	0xbe14e4dc	-0.14540428
154	0x3e32ebe5	0.17472799
155	0x3e8e7abd	0.27828017
156	0xbc4912c6	-0.012272542
157	0x3ce78f56	0.02826659
158	0xbc822dcb	-0.015890976
159	0x3e132c18	0.14372289
160	0x3daf82d3	0.085698746
161	0x3d80b296	0.062840626
162	0xbd60660a	-0.054784812
163	0x3d3bf7f9	0.045890782
164	0xbd0c3ab2	-0.034235664
165	0xb9c60495	-0.00037768917
166	0xbe3943bd	-0.18092246
167	0xbe17b4b4	-0.14815027
168	0x3e1c24ce	0.15248415
169	0x3db91a0b	0.090381704
170	0xbd6dd361	-0.058062915
171	0xbd664d1b	-0.056225877
172	0x3dda94b5	0.10672895
173	0x3dd245e8	0.1026724
174	0x3b71be57	0.0036887133
175	0xbe36c89a	-0.17849961
176	0x3d358c5a	0.044323303
177	0xbe4893da	-0.19587651
178	0x3a6904c2	0.00088889536
179	0xbe536428	-0.20643675
180	0xbe2bfefa	-0.16796485
181	0xbd692615	-0.056921083
182	0xbb1ac710	-0.0023617186
183	0x3e1f7182	0.15570644
184	0xbdb563c8	-0.088569224
185	0x3d9a9fe1	0.07550026
186	0xbe09bf17	-0.13451801
187	0x3dc532b5	0.09628812
188	0x3e2c3641	0.16817571
189	0x3cbee27b	0.023301354
190	0xbe6a33e5	-0.22871359
191	0xbc56869e	-0.013093619
192	0xbe3c3ad7	-0.1838182
193	0xbdb13eca	-0.08654554
194	0x3c92876d	0.017886842
195	0xbc966e84	-0.018363245
196	0xbd38b3cd	-0.045093346
197	0xbdde0d24	-0.1084235
198	0x3cdaa809	0.026691454
199	0xbd513f31	-0.051085655
200	0xbd6c5fdc	-0.057708606
201	0x3d0815c6	0.03322389
202	0xbe0f57ad	-0.1399829
203	0xbcc84b39	-0.024449931
204	0x3b58c0af	0.0033073833
205	0xbccc434c	-0.024934433
206	0x3de9e270	0.11420143
207	0xbdd0aa00	-0.10188675
208	0xbddada73	-0.10686197
209	0x3dbf61fc	0.09344861
210	0x3dc4a283	0.09601309
211	0xbb28ded9	-0.0025767593
212	0xbd6ff1fb	-0.05858038
213	0xbe0396a0	-0.12850428
214	0xbd6a2766	-0.05716648
215	0xbdc7f169	-0.09762842
216	0xbd4a27d9	-0.049354408
217	0x3df88008	0.12133795
218	0xbe4cc3dd	-0.19996591
219	0xbdf8087f	-0.121109955
220	0xbabc969a	-0.0014388144
221	0x3de4dafe	0.11174582
222	0xbe0ce4ac	-0.13759106
223	0xbd2fcbde	-0.042919032
224	0xbd31b747	-0.043387678
225	0xbc4d9cff	-0.012549638
226	0x3c93c3cd	0.018037701
227	0xbd65b335	-0.05607911
228	0xbc8f087d	-0.017460102
229	0xbd741e7d	-0.05959939
230	0x3d045dfb	0.03231619
231	0x3cb925ea	0.022601087
232	0xbdba9f63	-0.09112432
233	0xbd84de55	-0.06487719
234	0xbd3fb9fd	-0.04680823
235	0xbd0ec826	-0.034858845
236	0xbce8da82	-0.028424505
237	0xbc9548f2	-0.01822326
238	0xbc4921ea	-0.012276152
239	0x3e398e92	0.18120793
240	0x3e183523	0.1486402
241	0xbd68982b	-0.056785744
242	0x3d85be64	0.06530455
243	0x3d67397e	0.056451313
244	0xbd84b841	-0.06480456
245	0xbbb2a07c	-0.00545126
246	0x3d19a87c	0.037514195
247	0x3d657d0c	0.056027457
248	0xbcfd3627	-0.03090961
249	0x3d8e9572	0.06962098
250	0x3d5f4768	0.054511458
251	0x3da493d7	0.08036011
252	0x3c98dc31	0.018659683
253	0x3cadb7f4	0.02120588
254	0x3df79f54	0.12090936
255	0xbe2563c7	-0.16151343

encoder.rnn.bias_ih_l0 f4 [192]
0	0xbd3abf92	-0.045592852
1	0x3d9cdb72	0.07659043
2	0x3c98d713	0.018657243
3	0xbd8a6685	-0.06757835
4	0x3d0f9976	0.03505846
5	0x3c5c7f75	0.0134581225
6	0xbd8750bb	-0.06607195
7	0xbcda91b9	-0.026680814
8	0x3df46c23	0.11934688
9	0x3e2975c7	0.16548835
10	0x3e1a4b3e	0.15067765
11	0xbceed31e	-0.029153403
12	0x3e24ce85	0.16094406
13	0xbdfe86de	-0.124280676
14	0xbe13bd61	-0.14427711
15	0xbc7cab58	-0.015421711
16	0xbcd3e4a6	-0.025865864
17	0x3dbffe0e	0.09374629
18	0x3d9c3a09	0.07628257
19	0xbbb32791	-0.005467363
20	0x3da4652f	0.08027112
21	0xbde3a3d5	-0.11115233
22	0x3d46e775	0.04856058
23	0x3dc75980	0.09733868
24	0xbd9c2949	-0.07625062
25	0x3dc866c6	0.097852275
26	0x3c6bb3ea	0.014386157
27	0xbbc30781	-0.0059518223
28	0xbbe9bbc5	-0.0071329796
29	0xbd9ee054	-0.07757631
30	0x3d668904	0.056283012
31	0x3db46541	0.08808375
32	0xbcb3472d	-0.021884525
33	0xbe034341	-0.12818624
34	0xbe03c776	-0.12869057
35	0xbc7df3e5	-0.0155000435
36	0x3d55059c	0.052007303
37	0x3960023c	0.00021363137
38	0xba99b5dc	-0.0011727172
39	0xbd861db8	-0.06548637
40	0xbd93e637	-0.07221644
41	0x3d867ee0	0.06567168
42	0x3e15dba5	0.14634569
43	0xbd96c10c	-0.073610395
44	0xbd4fd058	-0.0507358
45	0x3e016cfd	0.12639232
46	0x3df9a47f	0.12189578
47	0x3d97be3c	0.07409331
48	0xbd251fce	-0.040313534
49	0x3d63bd6c	0.05560057
50	0x3cd283b6	0.02569757
51	0xbd92a0c0	-0.07159567
52	0xbddcc7b2	-0.10780276
53	0xbc9c53b2	-0.019082878
54	0x3cfec9d2	0.031102095
55	0xbda681f8	-0.08130258
56	0x3e1a656b	0.1507775
57	0x3d9a40e0	0.07531905
58	0xbd2d4879	-0.042305443
59	0xbcf71152	-0.030159626
60	0xbd4dafa2	-0.050216325
61	0x3d9b4e47	0.075832896
62	0xbd4279d6	-0.047479473
63	0x3d58807e	0.052856915
64	0x3e53fe46	0.20702466
65	0x3e1c2eab	0.15252177
66	0x3e333186	0.1749936
67	0x3bcfae12	0.0063378895
68	0xbd0a6ddf	-0.033796187
69	0x3ca2d42a	0.019876558
70	0xbcf41fc3	-0.029800301
71	0x3e1511a8	0.14557517
72	0x3ddac267	0.106816106
73	0x3cda53db	0.026651314
74	0x3e0a8754	0.13528186
75	0x3e2d76d8	0.16939867
76	0x3d4d4e7f	0.050123688
77	0x3e0d6b97	0.13810574
78	0xbd154642	-0.036443956
79	0x3e51774a	0.20455661
80	0x3e493810	0.19650292
81	0x3db199e4	0.086719304
82	0x3d77b84b	0.06047849
83	0x3b2fb677	0.0026811638
84	0xbd78646d	-0.06064265
85	0xbd2aad45	-0.04166915
86	0x3e61e1c6	0.22058782
87	0x3e05a1c1	0.13049985
88	0x3c907df8	0.017638192
89	0x3d92c6ca	0.07166822
90	0x3cb108fc	0.02161073
91	0x3d8c935c	0.06864044
92	0x3dc3efd1	0.09567226
93	0x3dfb9b14	0.12285438
94	0x3e0f909e	0.14020011
95	0xbd38bead	-0.045103718
96	0x3e2f9622	0.17147115
97	0x3d808e49	0.06277139
98	0xbdbd4351	-0.09241355
99	0x3d88c6a3	0.06678512
100	0x3e33dbdc	0.17564338
101	0x3ba2c6b0	0.004967533
102	0x3e6e670e	0.232815
103	0x3e2dbb23	0.16965918
104	0xbcc083ac	-0.023500286
105	0x3dc40fc7	0.09573322
106	0x3e69489d	0.22781606
107	0x3e0a43e6	0.13502464
108	0xbb806883	-0.003918709
109	0xbc13bd8b	-0.0090173585
110	0x3db10ec4	0.086453944
111	0x3d3f4283	0.04669429
112	0x3ce516d5	0.027964989
113	0xbde5f2d4	-0.112279564
114	0x3e077ee8	0.13232005
115	0x3e81a8c1	0.25324062
116	0xbc43ac63	-0.011942956
117	0x3d426038	0.047455043
118	0x3df0b224	0.11752728
119	0x3d4db178	0.050218076
120	0xbda0ce58	-0.07851857
121	0x3dc1ee14	0.09469238
122	0x3d47a26f	0.048738893
123	0xbc100032	-0.008789109
124	0x3dc4ca23	0.09608867
125	0x3d97adf9	0.074062295
126	0x3e3ad78d	0.18246289
127	0x3dc102e7	0.09424382
128	0xbccf187d	-0.025280232
129	0x3da8012b	0.08203348
130	0xbdcf091e	-0.10109161
131	0x3dac6238	0.08417171
132	0xbd89ebaf	-0.06734406
133	0x3d841d68	0.06450921
134	0x3dbd061b	0.0922968
135	0x3d05988f	0.032616194
136	0xbd61d4d7	-0.05513462
137	0x3d412c76	0.047161542
138	0xbe0bb926	-0.13644847
139	0x3e1ad3ec	0.15119904
140	0x3df9e0e4	0.122010976
141	0x3dbf09c9	0.09328038
142	0xbd958ef3	-0.07302656
143	0xbd83f601	-0.06443406
144	0x3c008b01	0.007845641
145	0xbe104bdc	-0.14091438
146	0xbd4e7819	-0.050407503
147	0x3e0a72d3	0.13520364
148	0x3d4508b3	0.048104
149	0x3e48d02c	0.19610661
150	0x3d3d077b	0.046149712
151	0xbdc1936f	-0.09451949
152	0x3df68504	0.120370895
153	0xbdac1a12	-0.0840341
154	0x3d850e7c	0.06496903
155	0x3d8e7fff	0.06958007
156	0x3daea225	0.0852702
157	0xbd222fb3	-0.03959627
158	0x3db0c74b	0.08631762
159	0xbde346e0	-0.11097503
160	0x3cf10c1e	0.029424723
161	0xbd915022	-0.07095362
162	0xbdbbb582	-0.09165479
163	0x3d729566	0.05922451
164	0xbd34caef	-0.044138845
165	0x3c8a3666	0.016871642
166	0x3d0d2275	0.03445669
167	0x3dced3ae	0.100989684
168	0x3dca68c1	0.098832615
169	0x3e282ba9	0.16422905
170	0x3cc2ebfc	0.023794167
171	0x3da01ecf	0.07818376
172	0x3d8c12f1	0.0683955
173	0x3e04f96a	0.12985769
174	0xbd55b209	-0.05217174
175	0xbe054b56	-0.1301702
176	0xbdb78cf8	-0.089624345
177	0x3dad4873	0.08461084
178	0x3b5129a8	0.0031915698
179	0xbd3472f8	-0.044054955
180	0xbe196bb6	-0.14982495
181	0x3d9600d0	0.07324374
182	0x3d59276e	0.05301612
183	0x3e4bfdd6	0.1992105
184	0x3da1c716	0.07899301
185	0xbdb9fcbd	-0.09081409
186	0x3ce32eb6	0.027732234
187	0x3d699d10	0.057034552
188	0x398a39bd	0.0002636443
189	0xbd1dad83	-0.03849555
190	0xbdb424a1	-0.08796049
191	0x3d1fec98	0.039043993

encoder.rnn.bias_hh_l0 f4 [192]
0	0x3cb3796a	0.02190848
1	0x3d9d545e	0.076821074
2	0x3dda57ca	0.10661276
3	0xbda9a161	-0.08282734
4	0x3d84755a	0.064676955
5	0xbdb99ef8	-0.09063524
6	0xbbe438ac	-0.0069647636
7	0xbda7025d	-0.08154748
8	0xbd8d2a3b	-0.068928204
9	0xbd2e81eb	-0.04260437
10	0x3cffd9cf	0.031231789
11	0x3d393c96	0.045223795
12	0x3d3f0858	0.046638817
13	0xbd1e3f17	-0.038634386
14	0x3d2a92a4	0.041643754
15	0xbc94a826	-0.018146586
16	0x3df6558d	0.12028036
17	0x3dcd5fac	0.100280136
18	0x3b4fb81e	0.0031695436
19	0x3d5c1d88	0.0537391
20	0x3df21683	0.118207
21	0xbd9ebb5f	-0.07750582
22	0x3b17abe1	0.002314322
23	0xbcbbce36	-0.022925477
24	0x3d31eba5	0.04343762
25	0x3d9a6cfd	0.07540319
26	0xbda84e4e	-0.082180604
27	0x3c9ca7c2	0.019122962
28	0x3dd122d7	0.10211723
29	0xbc3e18d2	-0.011602597
30	0xbd280350	-0.041018784
31	0x3d7275b2	0.059194274
32	0x3d4e15a0	0.050313592
33	0xbded5864	-0.11589125
34	0x3c99c5c2	0.018771056
35	0xbe14efff	-0.14544676
36	0x3cc810a9	0.024422007
37	0x39ea773d	0.00044720797
38	0x3da23559	0.079203315
39	0x3dbf9eb2	0.093564406
40	0x3cc67b35	0.024228672
41	0xbe027b6c	-0.12742394
42	0x3c651e75	0.013984312
43	0xbdec71e4	-0.115451604
44	0x3daa2dad	0.08309493
45	0x3e37aa86	0.17936143
46	0x3c9b72d1	0.018975647
47	0xbbc6668f	-0.0060547064
48	0xbe054e67	-0.1301819
49	0x3d5c2189	0.05374292
50	0x3e0e98a5	0.13925417
51	0x3d33a3db	0.043857437
52	0xbe1082a5	-0.14112337
53	0xbdd7c5a6	-0.10535745
54	0x3e00ad04	0.12566
55	0x3d2e55e2	0.042562373
56	0x3dc8cb15	0.0980436
57	0xbd3c8b86	-0.046031497
58	0x3d043427	0.0322763
59	0x3d863966	0.06553917
60	0xbdd6637e	-0.104681954
61	0xbc22fcd7	-0.009947977
62	0xbde09b50	-0.109671235
63	0xbd8042e8	-0.06262761
64	0x3e2c1392	0.1680434
65	0x3e3e0e5d	0.18560167
66	0x3def29bd	0.11677883
67	0x3d744429	0.059635315
68	0x3be372ec	0.00694119
69	0xbd1673ba	-0.03673146
70	0x3e0e8666	0.13918456
71	0x3d3b8f94	0.045791224
72	0x3e682654	0.22670871
73	0x3de9d1e3	0.11416986
74	0x3e5111a4	0.20416886
75	0x3e07cc80	0.13261604
76	0x3e0231ca	0.12714306
77	0x3e3310b7	0.17486845
78	0xbcbd1d46	-0.023085248
79	0x3e414bd5	0.18876584
80	0x3e68cb40	0.22733784
81	0x3e31e918	0.17374074
82	0x3bd254c5	0.0064187967
83	0x3d49867e	0.049200527
84	0x3dd52e37	0.104092054
85	0xbd2f3b49	-0.042781148
86	0x3e229944	0.15878779
87	0x3d7daed1	0.061934296
88	0x3e186a69	0.14884342
89	0x3dd7663c	0.105175465
90	0x3e8545a9	0.2602971
91	0x3e11c4cc	0.14235228
92	0xba9411b8	-0.0011296785
93	0x3e0d0e46	0.13774976
94	0x3e281690	0.16414857
95	0xbde7507e	-0.112946495
96	0x3e23a506	0.1598092
97	0x3d731b20	0.05935204
98	0xbddf9871	-0.10917748
99	0x3de7c1f1	0.11316288
100	0x3e2c02f8	0.16798007
101	0x3db491d4	0.08816877
102	0x3dad74ee	0.08469568
103	0x3dd2d095	0.1029369
104	0x3e2f607a	0.17126647
105	0xbd3a7c02	-0.04552842
106	0x3e1097d2	0.14120415
107	0xbc8f0bbe	-0.017461654
108	0x3c569953	0.013098079
109	0x3dca83fa	0.09888454
110	0x3d154d2f	0.03645056
111	0x3e668b6b	0.22514121
112	0x3e29e9a3	0.16593032
113	0x3d119016	0.0355378
114	0x3dd1d8c7	0.10246425
115	0x3db4c073	0.08825769
116	0xbd866c7b	-0.0656366
117	0x3d89d8d7	0.06730812
118	0x3e3550a4	0.17706543
119	0x3e3934b1	0.18086506
120	0x3d1c331d	0.038134683
121	0x3e37e8a9	0.17959847
122	0x3e41fdbc	0.18944448
123	0x3e2772e5	0.16352423
124	0x3e38ef3c	0.1806001
125	0x3dad8221	0.08472086
126	0x3e1ddeb9	0.15416993
127	0x3e4fca51	0.20292021
128	0xbddf34e1	-0.10898758
129	0x3e077e3c	0.13231748
130	0x3d0b2c65	0.033977885
131	0xbcae72b3	-0.021294927
132	0x3ddacf2b	0.106840454
133	0x3df5310e	0.11972247
134	0x3c57f73b	0.013181503
135	0xbd29303c	-0.041305766
136	0x3dcb418c	0.099246114
137	0xbc991579	-0.018686997
138	0xbd3a0414	-0.045414045
139	0x3d6aec54	0.057354286
140	0x3c605fc3	0.013694706
141	0x3d524b6a	0.05134145
142	0x3d50ce14	0.05097778
143	0xbdffdbba	-0.124930814
144	0x3def469e	0.11683391
145	0xbdd8a6bd	-0.10578678
146	0x3dff825e	0.124760374
147	0xbd131ccf	-0.035916146
148	0xbd9f7093	-0.07785144
149	0x3da60d1c	0.08107969
150	0x3dc81b80	0.0977087
151	0xbd9b272f	-0.07575833
152	0x3c02a3a1	0.0079735825
153	0x3cad00de	0.021118578
154	0x3d8e8b7f	0.069602005
155	0xbd980c3a	-0.07424207
156	0x3cd08fa9	0.025459128
157	0xbd4d5dba	-0.050138213
158	0x3da6964f	0.08134138
159	0xbda4c881	-0.080460556
160	0xbcf5b51f	-0.029993592
161	0x3d1a1daf	0.037625965
162	0x3d63c7fc	0.05561064
163	0xbd9397f5	-0.07206718
164	0x3d893410	0.06699383
165	0x3dd86977	0.10566991
166	0xbd698191	-0.05700833
167	0xbdb555a9	-0.08854229
168	0xbcea0002	-0.028564457
169	0x3cb7e8d5	0.02244989
170	0x3d12b6d8	0.035818905
171	0x3e0cd9fe	0.13755032
172	0xbdba4808	-0.0909577
173	0x3e2bb450	0.16768003
174	0xbc467968	-0.012113906
175	0xbd0d98e0	-0.03456962
176	0xbd844939	-0.064592786
177	0x3da6a554	0.081370026
178	0xbb67d385	-0.0035373878
179	0x3d6fe475	0.058567483
180	0xbe153494	-0.14570838
181	0x3de7ff48	0.11327988
182	0xbd3357a2	-0.043784745
183	0x3d8cfc95	0.06884114
184	0x3cdc0d6c	0.026861869
185	0xbddf52eb	-0.10904487
186	0x3ddf90c7	0.10916286
187	0xbdd48238	-0.103764
188	0xbcb59f34	-0.02217064
189	0x3d92d21a	0.0716898
190	0x3d801bc0	0.06255293
191	0xbdd409e0	-0.10353446

encoder.rnn.weight_ih_l0_reverse f4 [192, 20]
0	0x3dd0df1a	0.10198803
1	0x3dd29734	0.10282746
2	0x3c9d9de3	0.019240325
3	0x3d61b7ad	0.055106808
4	0xbdcdfe04	-0.10058215
5	0x385fedc4	5.338878e-05
6	0x3d61835f	0.055056926
7	0x3ded8f8f	0.11599647
8	0x3dcd1423	0.100136064
9	0xbda53ead	-0.08068595
10	0xbde51da0	-0.11187291
11	0x3c89d52c	0.016825281
12	0x3d886f13	0.06661811
13	0x3b5a28cc	0.0033288477
14	0x3d562c82	0.05228854
15	0x3dc3d138	0.0956139
16	0x3dbb4abf	0.09145116
17	0xbddc5ff4	-0.10760489
18	0xbdfa3ab8	-0.12218231
19	0x3dab10e4	0.08352831
20	0xbc5f0973	-0.013613093
21	0xbe10bae2	-0.1413379
22	0xbdd24793	-0.10267558
23	0xbc0d50f0	-0.008625254
24	0x3e40cf4a	0.18829075
25	0x3d4acb2d	0.04951017
26	0x3e351c44	0.17686564
27	0x3e572d47	0.21013366
28	0x3d3954ec	0.045247003
29	0x3e3a9398	0.18220365
30	0x3df840b4	0.12121716
31	0x3d2453a2	0.04011882
32	0x3c997d7e	0.018736597
33	0xbd59636e	-0.05307334
34	0x3e528fa8	0.20562613
35	0x3dd76115	0.10516564
36	0x3d4d0e4d	0.050062466
37	0x3dd24589	0.10267169
38	0x3c9f8d35	0.019476512
39	0x3e2b5994	0.1673339
40	0x3de68c6e	0.112572536
41	0x3d9250af	0.071442954
42	0xbd848a27	-0.06471663
43	0xbdc56946	-0.0963922
44	0xbdc30a4e	-0.0952345
45	0xbe26cd6c	-0.162893
46	0x3d786616	0.06064423
47	0xbc2ef48f	-0.0106784245
48	0x3d665b1a	0.056239225
49	0xbd8d5586	-0.06901078
50	0xbe330775	-0.17483313
51	0x3d5eff13	0.054442476
52	0x3e101b7e	0.14072987
53	0x3e10bd7d	0.14134784
54	0x3d48a803	0.048988353
55	0xbe32e2f9	-0.17469396
56	0xbe04381e	-0.12912032
57	0xbe475cd9	-0.19469012
58	0xbc283758	-0.010267101
59	0xbbd1d119	-0.0064031
60	0xbde71a79	-0.11284346
61	0xbd14da82	-0.036341198
62	0x3dd19206	0.1023293
63	0xbda526da	-0.08064051
64	0xbcade44b	-0.021227023
65	0x3d66a2a6	0.056307457
66	0x3a211a65	0.00061455957
67	0x3d821c90	0.06353104
68	0xbd990cb2	-0.074731246
69	0x3d758f78	0.059951276
70	0xbd992a0b	-0.07478722
71	0x3b6ed285	0.0036441397
72	0x3e7920d2	0.24328926
73	0x3dfdef45	0.12399153
74	0xbd6431b4	-0.055711463
75	0x3d99d16c	0.07510647
76	0x3bb387ee	0.0054788506
77	0xbdc84a13	-0.097797535
78	0xbd8fff8f	-0.07031166
79	0x3cab5bd7	0.020917816
80	0x3e770a4f	0.24125026
81	0x3e40a82f	0.18814157
82	0x3b52be2f	0.0032156815
83	0xbc9f8515	-0.019472638
84	0xbd11e7f2	-0.03562159
85	0xbe2c8407	-0.1684724
86	0xbdb900f4	-0.09033385
87	0xbd93d808	-0.07218939
88	0x3d25090d	0.040291835
89	0xbe294efc	-0.16534036
90	0xbd5cdcd3	-0.053921532
91	0xbdb745e6	-0.08948879
92	0xbca44aa2	-0.020055119
93	0xbe45ad81	-0.19304468
94	0xbe41309a	-0.18866196
95	0xbd2de7bc	-0.042457327
96	0xbdebf2b9	-0.11520905
97	0xbd913afa	-0.07091327
98	0xbb0371d3	-0.0020056858
99	0xbd38a9ba	-0.04508374
100	0xbd94ce53	-0.07265916
101	0xbc189d0c	-0.009314787
102	0xbddef99f	-0.10887455
103	0xbd7bcf36	-0.06147691
104	0x3e01af0e	0.12664434
105	0x3d05e68c	0.03269057
106	0x3bfe9349	0.0077690226
107	0xbd9d3e6c	-0.07677922
108	0x3dc0d2a3	0.09415176
109	0xbca22e13	-0.01979736
110	0x3da0a79a	0.078444675
111	0xbcdfb080	-0.027305841
112	0x3e907b88	0.28219247
113	0x3e11524e	0.14191553
114	0x3db42f15	0.08798043
115	0x3debef97	0.115203075
116	0xbd55833f	-0.05212712
117	0x3e10b7b4	0.14132577
118	0xbd55b19f	-0.052171346
119	0x3dc6fc04	0.09716037
120	0xbcaaa689	-0.020831363
121	0x3d575a7d	0.05257653
122	0x3d6f760a	0.05846218
123	0xbe0424ae	-0.12904617
124	0x3d99d0ca	0.075105265
125	0x3daad9a0	0.0834229
126	0xbca6b4ba	-0.020349849
127	0x3d1adeed	0.037810255
128	0xbbc6abfb	-0.006062982
129	0xbdb364b2	-0.087594405
130	0xbdf6449c	-0.12024805
131	0xbd8bf0b2	-0.06833018
132	0x3e74f538	0.23921669
133	0x3dc1078a	0.09425266
134	0x3d758f73	0.059951257
135	0x3c5b56bb	0.013387377
136	0x3c45bf3e	0.0120695215
137	0xbd9350cc	-0.07193145
138	0x3be1f3c4	0.006895514
139	0xbd943096	-0.072358295
140	0x3deb37a4	0.11485222
141	0x3d27ed2d	0.040997673
142	0x3e15190a	0.14560333
143	0xbe217f01	-0.15771104
144	0x3e191b22	0.14951757
145	0x3e37ffbb	0.17968647
146	0x3dc02682	0.09382345
147	0x3da2ad2d	0.07943187
148	0x3e3ce4eb	0.184467
149	0x3d9230c4	0.071382076
150	0x3e2515b4	0.1612156
151	0x3e1a51f4	0.15070325
152	0xbe717401	-0.23579408
153	0xbe512e23	-0.20427756
154	0x3d60e6d7	0.054907646
155	0x3e1828a4	0.14859253
156	0x3d6c812a	0.057740368
157	0x3d7ab743	0.06120993
158	0x3e1eeb8c	0.15519542
159	0x3dfcefb6	0.12350409
160	0x3dc76700	0.097364426
161	0xbd8ed5dc	-0.06974384
162	0x3d443d5f	0.04791009
163	0xbd85fd83	-0.06542494
164	0xbd452d0f	-0.048138674
165	0xbd9f5667	-0.07780152
166	0xbe3ccaa3	-0.18436675
167	0xbce9ba8e	-0.028531339
168	0xbdc63f71	-0.09680069
169	0x3cfe834c	0.031068467
170	0x3caaa902	0.020832542
171	0xbe3bd731	-0.18343808
172	0x3e07a628	0.13246977
173	0x3c3c2934	0.011484433
174	0xbe570c3d	-0.21000762
175	0xbcda7ed4	-0.026671804
176	0xbd897668	-0.06712037
177	0xbe33218f	-0.1749327
178	0xbdb9e56f	-0.09076964
179	0xbc239e83	-0.009986523
180	0xbc6a4bb2	-0.014300274
181	0x3deb0bcf	0.11476862
182	0xbd821dba	-0.06353326
183	0xbd339190	-0.04383999
184	0x3d768009	0.060180698
185	0x3dc23637	0.09482997
186	0xbdb41144	-0.08792356
187	0x3d4a2939	0.04935572
188	0xbbef3033	-0.007299447
189	0x3d377ff1	0.04479975
190	0x3d0f2d11	0.034955088
191	0x3dcfffc5	0.10156206
192	0xbe3850ef	-0.17999624
193	0xbe214747	-0.15749846
194	0x3d9b7115	0.07589928
195	0x3c00f606	0.007871157
196	0xbd7981a9	-0.06091467
197	0x3e09ac14	0.13444549
198	0x3e0ba48c	0.13636988
199	0x3e0cf3e5	0.13764913
200	0x3c899170	0.016792983
201	0xbda700e6	-0.08154468
202	0xbd5588c7	-0.052132394
203	0x3d0a69c1	0.03379226
204	0x3cbcc6c2	0.023043994
205	0xbde79e35	-0.113094725
206	0x3c284a1a	0.010271573
207	0x3daff7de	0.08592199
208	0xbdbc3f33	-0.09191742
209	0x3c8a39b7	0.016873224
210	0x3d461306	0.048357986
211	0xbc9a358c	-0.018824361
212	0x3d8c782c	0.068588585
213	0x3de04f00	0.10952568
214	0x3c902b62	0.017598812
215	0x3c491ff8	0.012275688
216	0xbb3e4265	-0.0029031273
217	0x3c9054b9	0.017618524
218	0xbdcca39a	-0.09992142
219	0x3deb0bff	0.114768974
220	0x3d7b9e5d	0.061430324
221	0x3d941a5c	0.0723159
222	0xbd942a36	-0.072346136
223	0x3c944d1c	0.018103175
224	0x3e3d4d95	0.18486626
225	0x3de10362	0.10986973
226	0xbc9c5c72	-0.01908705
227	0x3d6e902b	0.058242958
228	0x3b88f4db	0.0041795797
229	0x3c296837	0.010339788
230	0x3e40924c	0.18805808
231	0x3c034251	0.0080114165
232	0xbe59e453	-0.21278505
233	0xbe0d3a88	-0.13791859
234	0x3dfd22d5	0.12360159
235	0xbd7aea82	-0.0612588
236	0x3d5fe354	0.054660156
237	0x3dfc758d	0.123271085
238	0x3c8429d0	0.016133219
239	0x3d04b0c1	0.03239513
240	0x3e2376bd	0.15963264
241	0x3c98b950	0.018643051
242	0x3d2ebad3	0.04265864
243	0xbe116440	-0.14198399
244	0xbddb02fb	-0.10693928
245	0xbe1936fd	-0.14962383
246	0x3d71b336	0.0590088
247	0xbc7bc2c9	-0.015366265
248	0x3c96b67e	0.018397566
249	0x3db6c814	0.089248806
250	0xbe001703	-0.12508778
251	0xbd049338	-0.03236696
252	0xbcd2f7e4	-0.02575297
253	0xbdd83f81	-0.105589874
254	0xbd940f76	-0.072295114
255	0xbd1e0c4b	-0.038585942

encoder.rnn.weight_hh_l0_reverse f4 [192, 64]
0	0x3dc1fee5	0.094724454
1	0x3ccdceb6	0.025122982
2	0xbd6f3e87	-0.05840924
3	0xbbbfbffd	-0.005851744
4	0xbd132ee8	-0.035933405
5	0x3ce84a78	0.028355822
6	0x3d142cda	0.036175586
7	0x3c49bd06	0.012313133
8	0x3dfc17eb	0.123092495
9	0xbdf4751f	-0.119364016
10	0x3da73137	0.08163684
11	0xbdb88a05	-0.090107
12	0x3d624846	0.055244707
13	0x3c5a81c2	0.013336601
14	0xbd4d3566	-0.050099753
15	0xbd682971	-0.056680147
16	0xbd0ef5db	-0.034902435
17	0xbc029823	-0.0079708425
18	0xbd9c4927	-0.0763114
19	0xbcefb33c	-0.02926027
20	0xbe182e1b	-0.14861338
21	0xbde0a151	-0.10968269
22	0xbdb1a590	-0.08674157
23	0xbe12ca70	-0.14335036
24	0x3e0eeadf	0.13956784
25	0x3dd0dcc8	0.10198361
26	0x3d91ae62	0.07113339
27	0xbc4bed37	-0.012446693
28	0x3dd4de6e	0.103939876
29	0x3da633c4	0.08115342
30	0xbd82338c	-0.06357488
31	0x3dbac53f	0.09119653
32	0xbdaf8269	-0.08569796
33	0x3c9f02d1	0.019410523
34	0x3d9382a7	0.07202654
35	0xbd479a29	-0.048731003
36	0xbd2d44e6	-0.042302035
37	0x3ccf0fed	0.025276149
38	0xbdc91565	-0.09818534
39	0xbd488c62	-0.048962004
40	0xbdf5bf0e	-0.119993314
41	0x3c7f1d00	0.015570879
42	0xbcf0ae33	-0.02937994
43	0x3dc3c28d	0.09558592
44	0xbd8a45e5	-0.067516126
45	0xbe1c88ce	-0.15286562
46	0xbde9e434	-0.114204794
47	0x3d05e8fd	0.032692898
48	0xbc017feb	-0.007904033
49	0x3e16d820	0.14730883
50	0xbc773428	-0.015088119
51	0xbd8e3b9f	-0.069449656
52	0x3b8d7a2e	0.0043175435
53	0xbc9d7e59	-0.019225286
54	0xbd77f976	-0.06054064
55	0xbd5312c6	-0.051531576
56	0x3dfc1ca8	0.12310153
57	0xbdc61d3a	-0.09673543
58	0x3d6be26a	0.057588972
59	0x3d5d9d6b	0.054105204
60	0x3d1a3032	0.03764362
61	0x3e3d6833	0.1849678
62	0xbdf6f499	-0.12058372
63	0xbdade74a	-0.084913805
64	0x3de7c40a	0.11316688
65	0x3da1ffde	0.07910131
66	0x3e352102	0.17688373
67	0x3e075881	0.13217355
68	0xbafd4eaf	-0.0019325818
69	0x3dadeaf2	0.08492078
70	0x3e0f1f24	0.13976723
71	0xbd527193	-0.051377844
72	0xbc015ef2	-0.007896172
73	0x3980bfdc	0.0002455701
74	0xbd7d6c8d	-0.0618711
75	0x3c6eed88	0.014582999
76	0x3e291016	0.16510043
77	0xbd8944ad	-0.06702552
78	0x3cadd8cd	0.021221543
79	0x3bc7731f	0.0060867216
80	0x3d44f61a	0.048086263
81	0xbcc71fac	-0.024307095
82	0xbde34dfb	-0.11098858
83	0xbdb7d049	-0.08975274
84	0xbde84f33	-0.11343231
85	0x3db3e5a8	0.08784038
86	0xbd809f1a	-0.06280346
87	0x3d224509	0.03961662
88	0xbcb21ed4	-0.021743216
89	0x3e0dbfc3	0.13842683
90	0x3e4da564	0.20082623
91	0x3d8bed62	0.068323866
92	0x3d951b6e	0.072806224
93	0x3e89fd41	0.2695103
94	0xbde6fac0	-0.112782955
95	0x3ddd8330	0.10816038
96	0xbe185e9c	-0.1487984
97	0xbcb757e0	-0.02238077
98	0x3cc3b1a8	0.023888424
99	0xbddb5ff3	-0.1071166
100	0x3dcf6ac5	0.101277865
101	0xbce8f843	-0.028438693
102	0xbafacd1a	-0.0019134611
103	0xbe2a5e19	-0.16637458
104	0xbd7a5ade	-0.061121814
105	0xbd1a4b50	-0.03766948
106	0x3d637638	0.055532664
107	0xbd207352	-0.039172478
108	0xbd9bbe8d	-0.07604704
109	0x3dda4f2c	0.10659632
110	0xbdb2be54	-0.087277085
111	0x3bb4147b	0.0054956055
112	0xbce71003	-0.028205877
113	0x3d8ae608	0.06782156
114	0xbd846236	-0.06464045
115	0xbdfa513b	-0.12222525
116	0x3dfce855	0.12349001
117	0x3d97a9c6	0.074054286
118	0x3b3742e1	0.0027963447
119	0xbc496927	-0.012293137
120	0x3d76471d	0.060126413
121	0x3d2cc401	0.04217911
122	0xbe3e7cb6	-0.18602261
123	0xbc969951	-0.018383654
124	0x3d62b77f	0.055350777
125	0x3bcb17f9	0.006197926
126	0xbdd6385d	-0.10459969
127	0x3cfd87f9	0.030948626
128	0xbc86fdcc	-0.016478442
129	0x3dcbef1b	0.09957715
130	0x3e01a979	0.12662305
131	0xbcd32bac	-0.02577766
132	0xbe2141d8	-0.15747774
133	0x3d371e8e	0.044706874
134	0x3e1d0f67	0.15337907
135	0x3b94b60e	0.004538304
136	0x3e701863	0.23446803
137	0xbdd7194b	-0.10502871
138	0xbd7e913c	-0.062150225
139	0x3e28f4b7	0.16499601
140	0x3dcd83ec	0.10034928
141	0xbde38a48	-0.111103594
142	0xbe41453b	-0.18874066
143	0xbe071e93	-0.13195257
144	0x3e0172be	0.12641427
145	0xbe18c985	-0.14920624
146	0x3cc5d2c2	0.024148349
147	0x3a2f3133	0.00066830515
148	0x3c2c977e	0.010534165
149	0xbd8fe5c8	-0.07026249
150	0xbe3f4841	-0.18679906
151	0xbe228989	-0.15872778
152	0x3e2abdea	0.16674009
153	0xbde93f49	-0.11389024
154	0x3c184cc1	0.009295643
155	0x3dcd6548	0.100290835
156	0x3e2b20d2	0.16711739
157	0x3ddbd679	0.10734267
158	0xbd37f789	-0.044913802
159	0x3dd12287	0.10211664
160	0xbded7292	-0.11594118
161	0xbbc79891	-0.0060911854
162	0x3e1a27e4	0.1505428
163	0xbd5e55cb	-0.054281037
164	0x3e425357	0.18977104
165	0x3ab821e2	0.0014048184
166	0xbd96e7a6	-0.07368402
167	0xbe0adb36	-0.13560185
168	0x3cc6497a	0.024204958
169	0xbc1039ea	-0.00880287
170	0xbe2675ac	-0.16255826
171	0x3e73cc3f	0.23808382
172	0x3c103273	0.0088010905
173	0x3d2166b0	0.03940457
174	0xb931da0d	-0.00016961266
175	0xbe07f2bc	-0.1327619
176	0xbd3ee265	-0.046602625
177	0x3ceca8fe	0.028889176
178	0xbcf70f69	-0.030158715
179	0x3d85e5ec	0.06537995
180	0xbd993c1e	-0.074821696
181	0x3dd0eb01	0.102010734
182	0x3da96082	0.082703605
183	0xbddd6065	-0.108094014
184	0xbdd0ff42	-0.102049366
185	0xbdf24747	-0.11830001
186	0xbdd1c10e	-0.102419004
187	0x3cccc075	0.024994114
188	0xbe0e14bf	-0.13875102
189	0x3d945433	0.07242622
190	0xbda807a2	-0.08204581
191	0x3dff1b90	0.12456429
192	0x3cf4fc40	0.029905438
193	0xbb39c0c6	-0.0028343662
194	0xbd37d78d	-0.0448833
195	0x3e15feb4	0.14647943
196	0xbe2a55c1	-0.16634275
197	0x3e03af41	0.12859823
198	0x3ce28239	0.027649986
199	0xbde96de4	-0.11397913
200	0x3e09219c	0.13391727
201	0xbcbdd49b	-0.023172667
202	0x3d0721f0	0.03299135
203	0x3e1515dc	0.1455912
204	0x3e7cb627	0.2467886
205	0xbe112d0c	-0.1417734
206	0xbd2cfbcd	-0.042232323
207	0xbe304faa	-0.1721789
208	0x3dde9d5a	0.10869856
209	0xbbde7b87	-0.006789628
210	0x3d199703	0.03749753
211	0x3e76ad53	0.24089555
212	0xbd193eb8	-0.03741333
213	0x3df97055	0.12179629
214	0xbe3124bf	-0.17299174
215	0xbdc99e8c	-0.098446935
216	0x3e112c14	0.1417697
217	0x3d8c6ecf	0.068570726
218	0x3db78c8e	0.089623556
219	0x3e02d0ac	0.12774915
220	0xbd67c2f3	-0.056582402
221	0x3d65c26d	0.056093622
222	0x3cc7f327	0.024407936
223	0xbcc5e406	-0.024156582
224	0xbdd328ee	-0.10310541
225	0xbddf2355	-0.10895411
226	0x3d0d2457	0.034458485
227	0xbdd6e449	-0.10492761
228	0x3e1ea199	0.15491332
229	0xbcd05bf2	-0.025434468
230	0xbd0fa3f8	-0.035068482
231	0xbe1b9ac7	-0.15195762
232	0x3cac0ade	0.021001276
233	0x3ca94503	0.02066279
234	0x3cd576dd	0.026057655
235	0x3e336192	0.17517689
236	0x3c9c31e9	0.019066768
237	0xbc2f740d	-0.010708821
238	0xbd93ece1	-0.072229154
239	0xbc1a3a47	-0.009413308
240	0xbae43cf9	-0.0017413191
241	0x3e036764	0.12832409
242	0x3dd468d9	0.103715606
243	0xbd3059fa	-0.04305456
244	0xbde9ad2e	-0.114099845
245	0x3d999f6a	0.07501109
246	0xbdd062bd	-0.10175083
247	0x3c33c0d4	0.010971267
248	0x3dc7c704	0.09754756
249	0xbdd0416c	-0.10168728
250	0xbe2a79f1	-0.1664808
251	0x3b94d78c	0.0045422968
252	0xbb1ac734	-0.002361727
253	0x3df6cab7	0.120503835
254	0xbd091a0c	-0.033472106
255	0x3dfd04d5	0.12354437

encoder.rnn.bias_ih_l0_reverse f4 [192]
0	0x3ddd7b70	0.108145595
1	0x3db0163c	0.08597991
2	0x3d2ecb97	0.042674627
3	0xbd0e6703	-0.03476621
4	0x3d8c2560	0.06843066
5	0xbcd1b008	-0.025596634
6	0x3d8d8578	0.06910223
7	0xbd859e06	-0.06524281
8	0xbc9f10a8	-0.019417122
9	0x3e3095fa	0.17244712
10	0x3c366223	0.011131796
11	0xbdb1e282	-0.08685781
12	0x3d4e91d9	0.05043206
13	0xbd7ecfeb	-0.062210005
14	0xbd847de5	-0.06469325
15	0xbb321639	-0.002717389
16	0xbc4ccea6	-0.012500441
17	0x3e35f297	0.17768322
18	0x3c72817a	0.014801377
19	0xbda11da8	-0.078669846
20	0x3b83bbf3	0.004020208
21	0xbd2c07c4	-0.041999593
22	0x3e43023d	0.19043823
23	0xbdcf09a0	-0.10109258
24	0xbb0816db	-0.0020765576
25	0xbd9bc5da	-0.076060966
26	0x3d1edc9d	0.038784612
27	0xbd1f58fd	-0.038903225
28	0x3cdccd3f	0.026953338
29	0xbe137fe7	-0.1440426
30	0x3e017cf4	0.12645322
31	0xbd5c9a2f	-0.05385798
32	0xbd3267c5	-0.043555994
33	0x3d9a0501	0.07520486
34	0xbe207a70	-0.15671706
35	0xbcaf9a75	-0.021435956
36	0x3de55895	0.11198536
37	0x3cc73d49	0.024321215
38	0x3da4576b	0.08024486
39	0x3c9d8956	0.019230526
40	0xbb5cd3b1	-0.0033695514
41	0xbd8a370f	-0.06748783
42	0x3dd09595	0.101847805
43	0x3d931852	0.07182373
44	0xbe385164	-0.17999798
45	0xbdcd9acf	-0.10039293
46	0xb9d076df	-0.00039761417
47	0xbc205692	-0.009786265
48	0xbbf704cb	-0.007538413
49	0xbd1bc547	-0.038029935
50	0xbdc7051a	-0.0971777
51	0x3d85f39d	0.06540606
52	0x3cb02d24	0.0215059
53	0xbd2d0d58	-0.042249054
54	0xbde244da	-0.11048289
55	0xbdbc64d3	-0.09198918
56	0xbdecf4ae	-0.115701064
57	0x3e0aae1e	0.13542983
58	0x3d07b638	0.03313276
59	0x3c5d571e	0.01350954
60	0xbd85c542	-0.065317646
61	0xbdbe7735	-0.09300081
62	0xbe137b93	-0.14402609
63	0xbd9359e0	-0.07194877
64	0x3e0bcebf	0.13653086
65	0x3da7472b	0.08167871
66	0xbded3549	-0.11582429
67	0x3d976265	0.07391814
68	0xbe0cee7e	-0.13762853
69	0x3ce95267	0.028481675
70	0x3cd466de	0.025927957
71	0x3da4aad4	0.080403954
72	0x3e250c70	0.16118026
73	0x3da07205	0.078342475
74	0x3d54aa76	0.051920377
75	0x3d1e30e8	0.03862086
76	0x3d107c22	0.035274632
77	0xbd97e31b	-0.07416364
78	0xbd8eea26	-0.06978254
79	0x3e1d6653	0.15371065
80	0x3d5a79a0	0.053338647
81	0x3dc2ea7e	0.09517382
82	0xbd87ca6b	-0.06630405
83	0x3d87bfa2	0.06628348
84	0x3e0853fa	0.13313285
85	0x3d807e51	0.06274093
86	0x3da04ff0	0.07827747
87	0xbe36561c	-0.17806286
88	0x3d23b8f7	0.039971318
89	0x3e267398	0.16255033
90	0x3c1988d4	0.009371001
91	0x3dbe2ea1	0.092862375
92	0xbdf41c07	-0.11919408
93	0x3d21cd0b	0.039502185
94	0xbe077419	-0.13227881
95	0xbe135fd7	-0.14392029
96	0xbd60ef59	-0.05491576
97	0x3d3f0862	0.046638854
98	0x3dda3aaa	0.106557205
99	0xbdf8b68e	-0.121441945
100	0xbe779f00	-0.24181747
101	0xbd94d202	-0.07266618
102	0xbd47890e	-0.04871469
103	0x3ca9b3ce	0.02071562
104	0x3e822350	0.25417566
105	0x3dec4ffb	0.115386926
106	0x3d200f06	0.039076827
107	0xbe129029	-0.14312805
108	0x3e13c5bf	0.14430903
109	0x3db61ece	0.08892594
110	0xbe20dc25	-0.15708978
111	0x3d19508d	0.037430335
112	0xbd6c4daf	-0.057691272
113	0x3c059e23	0.0081553785
114	0xbe645680	-0.22298622
115	0x3d12e8ca	0.035866536
116	0x3d72fa26	0.05932059
117	0xbdf7ec0a	-0.12105568
118	0xbe52b79e	-0.20577857
119	0xbdbfe911	-0.09370626
120	0x3e801ab4	0.25020373
121	0x3b96d5dd	0.004603131
122	0x3c5ab032	0.013347672
123	0x3de7e2f2	0.11322583
124	0x3d049bd3	0.032375168
125	0x3e427260	0.18988943
126	0xbd00e3f5	-0.031467397
127	0xbd1e9fad	-0.038726497
128	0xbe17363f	-0.14766787
129	0xbaeec5f7	-0.0018216957
130	0xbdf5ef60	-0.12008548
131	0xbd2659a1	-0.04061282
132	0x3e141c86	0.14464006
133	0xbe2e3639	-0.17012872
134	0xbd6b6154	-0.057465866
135	0xbd99a060	-0.07501292
136	0xbd2db3f3	-0.04240794
137	0x3df931d3	0.12167706
138	0x3decb08f	0.115571134
139	0xbdbaee63	-0.091275
140	0xbe2bdd0b	-0.1678354
141	0x3e0ea4ae	0.13930008
142	0x3dfae5b8	0.122508466
143	0x3d05a2b4	0.03262587
144	0xbdb83867	-0.08995133
145	0x3e14c753	0.14529161
146	0x3e060a1f	0.13089798
147	0x3cd3e7f7	0.025867445
148	0x3e06b577	0.13155161
149	0xbc8be37d	-0.017076248
150	0xbd31b5d5	-0.0433863
151	0x3d103a03	0.035211574
152	0xbdadb933	-0.084825896
153	0x3dc3624a	0.095402315
154	0x3daf51fe	0.08560561
155	0x3d9ca120	0.0764792
156	0xbd8fa507	-0.07013898
157	0x3ce713d0	0.02820769
158	0x3d93c7bb	0.0721583
159	0x3d1825ac	0.0371453
160	0xbcc5cc1a	-0.024145175
161	0xbbe003d6	-0.006836395
162	0xbd2b4752	-0.041816063
163	0x3ddaa8bf	0.10676717
164	0x3d81b3e3	0.06333139
165	0xbe04be21	-0.12963153
166	0xbb049540	-0.0020230561
167	0x3d32fd0e	0.043698363
168	0xbd6ac6f3	-0.05731864
169	0x3d48eeab	0.049055737
170	0xbc118a93	-0.008883136
171	0x3d0c8ec4	0.03431584
172	0x3d27c687	0.040960815
173	0xbd96021c	-0.07324621
174	0xbd89ce85	-0.067288436
175	0x3e1295b8	0.14314926
176	0xbc69f85c	-0.014280405
177	0x3d32b6a5	0.043631215
178	0x3db7428a	0.08948238
179	0xbdb53014	-0.08847061
180	0xbd368816	-0.044563375
181	0xbe3c47cb	-0.18386762
182	0xbdb26a3e	-0.0871167
183	0x3e17255d	0.14760347
184	0x3ca67990	0.020321637
185	0x3e436f7b	0.19085495
186	0x3dcb3eac	0.09924063
187	0xbd1b1235	-0.03785916
188	0x3d20b676	0.03923651
189	0x3974545e	0.00023301083
190	0x3da115f5	0.07865516
191	0xbe01a56c	-0.1266076

encoder.rnn.bias_hh_l0_reverse f4 [192]
0	0x3cdbd6f6	0.0268359
1	0x3d9dd892	0.07707323
2	0x3d6e34ee	0.058155946
3	0xbd5ad42a	-0.05342499
4	0x3c7ce681	0.015435816
5	0x3de58c7a	0.112084344
6	0xbdc77d92	-0.097407475
7	0xbe14f97e	-0.14548299
8	0xbcc316a2	-0.023814503
9	0x3de72813	0.112869404
10	0x3c87cbf2	0.01657674
11	0xbdf12c9c	-0.11776087
12	0x3960348c	0.0002138188
13	0xbdac130d	-0.08402071
14	0xbd657d0d	-0.05602746
15	0xbdd429d2	-0.10359539
16	0x3d4caddd	0.049970496
17	0x3e0ef721	0.1396146
18	0xbdba15f1	-0.09086216
19	0xbc5066c4	-0.012719814
20	0x3de52493	0.111886166
21	0x3ca5297f	0.020161388
22	0x3d8af35c	0.06784698
23	0xbe0bd0e8	-0.1365391
24	0xbd84987e	-0.06474398
25	0xbd0f1234	-0.03492947
26	0xbd882dbf	-0.066493504
27	0x3d831cb8	0.06401962
28	0xbdc634c3	-0.09678032
29	0xbcc65b95	-0.024213592
30	0x3db97223	0.09054973
31	0xbd32c6d9	-0.043646667
32	0x3bed613b	0.007244257
33	0x3d577da5	0.05261006
34	0x3d10f7c5	0.03539254
35	0x3cc22119	0.023697423
36	0x3d2969b7	0.041360583
37	0xbd86217f	-0.065493576
38	0x3dd2e9e1	0.10298515
39	0x3e1efcd0	0.15526128
40	0xbe24d5f0	-0.16097236
41	0xbd539bb3	-0.05166216
42	0x3e0578eb	0.13034408
43	0x3e1a9848	0.15097153
44	0xbe0d07f8	-0.13772571
45	0x3db356e3	0.08756807
46	0x3db3a8e9	0.087724514
47	0xbc83ac32	-0.01607332
48	0xbe017dde	-0.12645671
49	0xbddfdaaf	-0.109303825
50	0xbda688f2	-0.08131589
51	0xbcaa46bf	-0.020785687
52	0x3c993b26	0.018704962
53	0xbdce391f	-0.10069489
54	0xbe188053	-0.14892702
55	0xbda310a7	-0.079621606
56	0x3d296fc7	0.041366365
57	0x3e36721e	0.1781697
58	0xbcc00adf	-0.023442684
59	0x3d527bb7	0.051387515
60	0xbd1b1449	-0.037861142
61	0x3d658aa8	0.056040436
62	0x3d1f1ad1	0.038843933
63	0xbd8c7012	-0.06857313
64	0x3c525721	0.012838156
65	0x3e60c2c4	0.21949297
66	0x3cdb0106	0.026733886
67	0x3de8a037	0.113586836
68	0x3d634cee	0.055493288
69	0x3e0aefd4	0.1356805
70	0x3db66fda	0.08908053
71	0xbd5ac310	-0.053408682
72	0x3c8cfd2c	0.017210566
73	0x3d28f14e	0.04124575
74	0x3bec7f5a	0.00721733
75	0xbe29bbdd	-0.1657557
76	0xbd582442	-0.052768953
77	0xbd8b9a6b	-0.06816562
78	0xbe2d634e	-0.16932413
79	0xbcd6d00c	-0.026222251
80	0xbcb7beda	-0.022429872
81	0x3d849d3f	0.06475305
82	0xbe903fda	-0.28173715
83	0x3d8781fa	0.06616588
84	0xbd804694	-0.06263462
85	0xbb8cf41e	-0.004301562
86	0x3d96ed24	0.0736945
87	0x3a22c4ce	0.0006209136
88	0x3cf9afca	0.03047933
89	0x3dbf2af9	0.09334368
90	0x3d480747	0.048835065
91	0x3d8854e4	0.066568166
92	0xbdee2b36	-0.116293356
93	0xbdb25ab8	-0.087087095
94	0xbd96260d	-0.07331476
95	0xbde72706	-0.1128674
96	0x3d39c4dd	0.04535376
97	0x3d9a96df	0.075483076
98	0x3e224865	0.15847929
99	0x3d83193a	0.06401296
100	0xbe0e9fc2	-0.1392813
101	0xbd7fd3a9	-0.062457714
102	0xbd40b1f2	-0.047044702
103	0xbde599be	-0.112109646
104	0x3e81fec9	0.25389698
105	0xbd399790	-0.045310557
106	0xbd8b62d4	-0.06805959
107	0xbcadd319	-0.021218823
108	0x3e11c59d	0.1423554
109	0x3d3d7e9b	0.04626332
110	0xbd882142	-0.066469684
111	0x3e48b02c	0.19598454
112	0xbe182477	-0.1485766
113	0xbd90a5ae	-0.07062851
114	0xbe209ce4	-0.15684849
115	0xbcec8b0c	-0.028874896
116	0xbdb4ad15	-0.08822075
117	0xbe0a3c18	-0.13499486
118	0xbe7f89e5	-0.24954946
119	0x3df89e7f	0.12139606
120	0x3dd498a6	0.10380678
121	0xbdd8632a	-0.10565789
122	0xbdedda31	-0.11613882
123	0x3e372c3c	0.17887968
124	0x3d0a08e4	0.033699885
125	0x3d8ff683	0.0702944
126	0xbd7c75c9	-0.061635766
127	0x3d82743e	0.06369828
128	0xbe13a575	-0.14418586
129	0x3d51e23c	0.051241145
130	0x3d95a87e	0.07307528
131	0xbdd5b220	-0.10434365
132	0xbd1fff32	-0.039061733
133	0xbdaff127	-0.08590918
134	0x3ddfa9e4	0.10921076
135	0x3c6da8b9	0.014505559
136	0x3d0f1fc8	0.03494242
137	0x3e44316d	0.1915948
138	0x3d88cfb0	0.06680238
139	0xbe1d1127	-0.15338574
140	0xbc17580d	-0.009237302
141	0xbcfbb1a5	-0.030724356
142	0x3c99ca27	0.018773152
143	0x3da54cae	0.08071266
144	0xbde81764	-0.113325864
145	0x3e2c81e6	0.16846427
146	0x3d036217	0.032075968
147	0x3ca53b49	0.02016987
148	0x3d4f006c	0.05053751
149	0xbbf3dfec	-0.007442465
150	0x3e2ed149	0.17072023
151	0xbc97c7a8	-0.01852782
152	0xbce0bb26	-0.02743299
153	0x3def0c9f	0.11672329
154	0xbdec2dd1	-0.11532176
155	0x3dc8807e	0.09790133
156	0xbda624b0	-0.08112466
157	0xbc8ee05d	-0.01744097
158	0x3ce83e10	0.028349906
159	0x3d85c1ba	0.06531091
160	0x3ce7ea98	0.028310105
161	0x3defbecd	0.11706314
162	0x3e14cf88	0.14532292
163	0xbc8c209d	-0.017105395
164	0x3da7efa5	0.082000054
165	0xbd35cca9	-0.044384632
166	0xbd8834be	-0.06650685
167	0x3e039a2d	0.12851782
168	0xbd3bf045	-0.045883436
169	0xbccbb44e	-0.02486625
170	0x3d2f38e6	0.042778872
171	0xbdf4814a	-0.119387224
172	0xbb8dd518	-0.0043283813
173	0xbd0c9d99	-0.034329984
174	0xbccb49c8	-0.024815455
175	0xbc1b7b52	-0.009489851
176	0xbb236e10	-0.0024937429
177	0xbd7a75b0	-0.06114739
178	0x3d8e1a2b	0.06938585
179	0x3dad9f15	0.08477608
180	0xbdcea638	-0.100902975
181	0xbdece0c0	-0.11566305
182	0xbcfbfdf8	-0.03076075
183	0xbc25b90b	-0.010114918
184	0xbca58f87	-0.02021004
185	0x3e29a351	0.16566207
186	0x3e3a8277	0.18213831
187	0xbdd2bce2	-0.10289933
188	0x3e02bf2f	0.12768243
189	0xbd1cfb6f	-0.038325723
190	0xbe05fe02	-0.13085178
191	0x3d810d0c	0.063013166
