team-09/checkpoints/best_seed1.pt (torch, 190133 bytes, 14 tensors)

encoder.norm.weight f4 [20]
0	0x3f6f2a32	0.9342376
1	0x3f7c04bc	0.98444724
2	0x3f7cbae9	0.987227
3	0x3f81e41f	1.0147742
4	0x3f650ee1	0.8947583
5	0x3f62e0bf	0.88624185
6	0x3f6f3795	0.93444186
7	0x3f69485a	0.91126025
8	0x3f6e6c26	0.9313377
9	0x3f6c7e50	0.9238024
10	0x3f7c1fce	0.9848603
11	0x3f62766c	0.8846195
12	0x3f93fa63	1.1560787
13	0x3f9258bd	1.1433331
14	0x3f76296f	0.9615697
15	0x3f6a1116	0.9143232
16	0x3f5e2ebb	0.86790055
17	0x3f6f4c2b	0.934756
18	0x3f666829	0.90002686
19	0x3f6dc3d0	0.9287691

encoder.norm.bias f4 [20]
0	0x3cd5688d	0.02605083
1	0xbd3bce3d	-0.04585098
2	0xbd705ca3	-0.058682095
3	0x3d0a2ca6	0.033733986
4	0x3ca6f524	0.020380564
5	0xbb942f01	-0.004522205
6	0x3cabb91d	0.020962292
7	0xbd066978	-0.032815427
8	0xbbc035cf	-0.0058657895
9	0xbc60bdd6	-0.013717135
10	0x3d71c755	0.05902799
11	0xbb3fbe3d	-0.0029257678
12	0x3d88bc36	0.066765234
13	0x3d95f3c3	0.073218845
14	0x3d51ed10	0.05125147
15	0xb9bb8ddb	-0.0003577311
16	0xbb90e582	-0.0044218907
17	0xbb2c013f	-0.002624586
18	0x3b8c7a52	0.0042870427
19	0x3b9b268f	0.004734821

encoder.rnn.weight_ih_l0 f4 [192, 20]
0	0xbc9aedba	-0.018912185
1	0xbd2fc24b	-0.0429099
2	0x3cf0a6da	0.029376436
3	0x3c82cf53	0.015968
4	0xbe86df06	-0.26342028
5	0xbdb4f49a	-0.088357165
6	0xbe3c5bf5	-0.18394454
7	0xbd90285a	-0.070389464
8	0xbddc77b3	-0.10765018
9	0xbe0a9a4d	-0.13535424
10	0xbe1002ce	-0.1406357
11	0xbe07e251	-0.13269927
12	0x3e47418e	0.19458601
13	0x3dc18311	0.09448827
14	0xbe253aa1	-0.16135646
15	0xbdc66f95	-0.09689251
16	0xbe0baf65	-0.13641126
17	0xbe1bd257	-0.15216957
18	0xbd2e2ffb	-0.042526226
19	0xbdd81180	-0.10550213
20	0xbe14df03	-0.14538197
21	0xbdbbbd2a	-0.091669396
22	0x3cec17c7	0.028819932
23	0xbddb021a	-0.1069376
24	0xbdc4f5e4	-0.096172124
25	0xbd75774b	-0.05992822
26	0x3c993d0c	0.018705867
27	0x3ce1c1c0	0.027558208
28	0xbe1efc62	-0.15525964
29	0x3d497994	0.04918821
30	0xbd155ff4	-0.03646846
31	0x3d8c3a4a	0.06847055
32	0x3e5dce6a	0.21660772
33	0x3c99f146	0.018791806
34	0xbe4df33d	-0.2011232
35	0xbd97e253	-0.07416215
36	0x3d51a30e	0.05118089
37	0xbd9091d4	-0.070590645
38	0xb919dc62	-0.00014673316
39	0xbdcead56	-0.10091655
40	0x3dddc9f0	0.10829532
41	0xbd072a88	-0.032999545
42	0x3de092ba	0.10965486
43	0xbbcb73c5	-0.006208869
44	0xbdf13927	-0.11778479
45	0x3bc4e3b8	0.0060085915
46	0xbdfb3965	-0.122668065
47	0xbc3edea0	-0.011649758
48	0xbdb1dca4	-0.08684662
49	0xbd7318ec	-0.05934994
50	0xbe3a9a0f	-0.18222831
51	0xbdef4e1c	-0.1168482
52	0x3e2c2ed6	0.16814741
53	0x3d886e3e	0.06661652
54	0x3d9526ad	0.072827674
55	0x3d679732	0.056540675
56	0xbd75ef6b	-0.06004278
57	0xbe0c1c32	-0.1368263
58	0x3cb728ac	0.022358261
59	0xbc5aadb4	-0.013347078
60	0xbdfae7aa	-0.12251218
61	0x3db59dae	0.08867966
62	0x3debb418	0.115089595
63	0x3d9e8c2a	0.07741578
64	0xbe0f4638	-0.1399163
65	0xbdcb9f16	-0.099424526
66	0xbd91da06	-0.07121663
67	0xbd0ea82a	-0.034828342
68	0xbe12c6e3	-0.14333682
69	0xbe0b60bd	-0.13611121
70	0xbca3642e	-0.01994523
71	0xbdbdf9c9	-0.09276158
72	0x3e52eef1	0.20598961
73	0x3e1f03ba	0.15528765
74	0xbd9b0079	-0.075684495
75	0xbb864534	-0.004097605
76	0xbce6657d	-0.028124565
77	0xbb484f6c	-0.0030564917
78	0xbe3c0fbc	-0.18365377
79	0x3bc415ff	0.0059840675
80	0xbdd2016f	-0.1025418
81	0xbd8afdd7	-0.06786697
82	0x3cab061c	0.020876937
83	0xbcab7ab3	-0.020932531
84	0xba9c2e5d	-0.0011915673
85	0xbe1c66fe	-0.15273663
86	0xbe42f57d	-0.19038959
87	0x3c82eb2c	0.01598128
88	0xbdc0a4d3	-0.09406438
89	0x3b08d5ac	0.0020879311
90	0xbd0f4e02	-0.034986503
91	0xbe2f140d	-0.17097493
92	0x3e1d72e4	0.15375859
93	0x3e19284b	0.14956777
94	0xbe0739be	-0.1320562
95	0xbde1b966	-0.1102169
96	0xbd11b3d5	-0.03557189
97	0xbd6ab952	-0.05730564
98	0xbe066636	-0.13124928
99	0xbdef605c	-0.11688301
100	0x3de3bb68	0.11119729
101	0x3b8e6f6d	0.004346779
102	0x3d872eb4	0.06600705
103	0x3da2f809	0.07957465
104	0xbe0fd54d	-0.14046212
105	0xbe2d0098	-0.16894758
106	0x3d6782ee	0.05652135
107	0xbd5e38e4	-0.054253474
108	0x3cda4c8d	0.02664783
109	0xbce797d8	-0.028270647
110	0xbc95045a	-0.018190552
111	0x3cf5b2ca	0.02999248
112	0x3e7725dc	0.24135536
113	0x3d12ed6c	0.035870954
114	0xbd20856c	-0.03918974
115	0x3d30d8ae	0.04317539
116	0x3cde5091	0.027138026
117	0x3c719171	0.014744149
118	0xbe1d8849	-0.1538402
119	0xbe1b7de6	-0.15184745
120	0x3b184950	0.0023237057
121	0x3d5ec82a	0.05439011
122	0x3dc1fe78	0.09472364
123	0xbd939bdf	-0.072074644
124	0x3b7d7b44	0.0038678208
125	0xbe029e5c	-0.12755722
126	0xbe39c9da	-0.18143407
127	0xbdba196b	-0.09086879
128	0x3c1e0770	0.009645328
129	0x3d414960	0.047189116
130	0xbe094059	-0.13403453
131	0xbd0a56d5	-0.033774216
132	0x3dc765c0	0.09736204
133	0x3d9618e8	0.07328969
134	0x3c8742fd	0.016511435
135	0x3cf008c2	0.029301051
136	0x3c8cf6f1	0.017207595
137	0xbcf996c3	-0.030467397
138	0xbe17dfa0	-0.148314
139	0xbe2dbd18	-0.16966665
140	0xbd9161fd	-0.07098768
141	0xbcee484f	-0.029087214
142	0xbda1a362	-0.07892491
143	0x3d6d14b6	0.05788108
144	0x3c50343b	0.012707765
145	0xbd6aeed8	-0.057356685
146	0x3c9fdff2	0.019515965
147	0x3c70ff09	0.014709243
148	0x3d4c3ecb	0.04986457
149	0x3d77a0b0	0.060455978
150	0xbd8e0ce0	-0.069360495
151	0x3dbd4e73	0.092434786
152	0x3d171c15	0.036892015
153	0x3d453993	0.04815061
154	0xbe204ded	-0.15654726
155	0xbdc95acc	-0.09831771
156	0xbdcd6e04	-0.100307494
157	0xbda5a2a5	-0.080876626
158	0x3d7c7759	0.061637256
159	0xbd8bb2b5	-0.06821195
160	0xbe013c3e	-0.12620637
161	0x3da15a68	0.07878572
162	0x3dda11c2	0.10647918
163	0x3c1c0270	0.0095220655
164	0xbe615afb	-0.22007363
165	0xbe0a2137	-0.13489233
166	0xbe5b9b87	-0.21446048
167	0xbe4e89cc	-0.20169753
168	0xbe89c0ff	-0.26905057
169	0xbe4f8654	-0.20266086
170	0xbe4109d9	-0.18851413
171	0xbdd58ad0	-0.10426867
172	0x3e4d7834	0.20065385
173	0x3e4b0073	0.1982439
174	0xba7a26d6	-0.000954253
175	0x3acbe57b	0.0015556061
176	0xbd996021	-0.07489038
177	0xbe2a6624	-0.16640526
178	0xbe7f5a84	-0.24936873
179	0xbda70635	-0.08155481
180	0xbd230354	-0.039798096
181	0x3c055567	0.008138037
182	0xbdc7b1d1	-0.09750713
183	0xbcf4d347	-0.029885901
184	0xbe19bd55	-0.1501363
185	0x3d2bd6e3	0.04195298
186	0xbe39505c	-0.18097061
187	0xbe26aa12	-0.16275814
188	0xbd889f5b	-0.0667102
189	0xbe026684	-0.12734419
190	0xbce9a150	-0.028519303
191	0xbdf35746	-0.118818805
192	0x3da5a041	0.08087207
193	0x3e150f16	0.14556536
194	0x3bc3b542	0.0059725353
195	0xbe0c4f93	-0.1370223
196	0xbc64257d	-0.0139249535
197	0x3c173c30	0.009230658
198	0x3d4e071d	0.050299753
199	0xbe1f32ab	-0.15546672
200	0xbddb46dd	-0.107068755
201	0xbe25fb09	-0.16209044
202	0x3e0bf5a3	0.13667922
203	0xbd2f7511	-0.042836253
204	0x3e3a555a	0.18196622
205	0x3dcfbccf	0.10143434
206	0x3dbe87e4	0.09303263
207	0x3dd629ab	0.10457166
208	0x3e0cb0c0	0.137393
209	0x3e274946	0.16336545
210	0x3e015026	0.1262823
211	0x3e11191b	0.14169733
212	0xbd5a9d56	-0.053372703
213	0x3e1673eb	0.14692657
214	0x3e682cd0	0.22673345
215	0x3e744b45	0.23856838
216	0x3e4327cb	0.19058149
217	0x3c5f9b50	0.013647869
218	0x3d6043da	0.05475221
219	0x3e6082a3	0.21924834
220	0xbe39e08a	-0.18152061
221	0x3de1e5ec	0.11030182
222	0xbd6d310f	-0.057908114
223	0xbdf8377a	-0.12119956
224	0xbd19aca2	-0.03751815
225	0xbe497103	-0.19672017
226	0xbe08ae27	-0.13347684
227	0x3c2051f4	0.009785164
228	0x3cedafab	0.02901443
229	0x3d5f54e6	0.054524325
230	0xbe0d37ec	-0.13790864
231	0xbe3f7e15	-0.1870044
232	0x3e9cf84d	0.30658188
233	0x3e1c4618	0.15261114
234	0xbe235982	-0.15952113
235	0xbbba9e0f	-0.0056951116
236	0xbe402f9a	-0.18768159
237	0xbc6e597a	-0.0145477
238	0xbc97b763	-0.018520063
239	0xbe418d90	-0.18901658
240	0xbe71e72b	-0.2362334
241	0xbdae7822	-0.08519007
242	0x3dd1a6ec	0.10236916
243	0xbc19851f	-0.009370117
244	0x3d2dd169	0.042436037
245	0x3dec40d2	0.11535801
246	0xbbfce42e	-0.007717631
247	0x3c800d5d	0.015631372
248	0x3d0169c2	0.031595
249	0x3e5af367	0.21381913
250	0x3e6b233d	0.22962661
251	0x3d87eeab	0.06637319
252	0x3c9417c0	0.018077731
253	0x3d89e75f	0.06733584
254	0x3e060c53	0.13090639
255	0x3d7820b7	0.060578074

encoder.rnn.weight_hh_l0 f4 [192, 64]
0	0xbd5e1c76	-0.05422636
1	0x3d16ccf3	0.03681655
2	0x3c9d72fc	0.019219868
3	0x3c1996b7	0.009374312
4	0xbdf148bc	-0.11781451
5	0xbe11dde9	-0.14244808
6	0xbd7852a5	-0.06062569
7	0xbdc2efef	-0.0951842
8	0x3e33f7b3	0.17574959
9	0xbd798bbe	-0.060924284
10	0xbd5346c2	-0.05158115
11	0xbd650168	-0.055909544
12	0xbcdc704c	-0.026909016
13	0xbdb414bb	-0.087930165
14	0xbe1c96a3	-0.15291838
15	0x3e10801a	0.14111367
16	0xbd644cb5	-0.055737216
17	0x3d48cda5	0.049024243
18	0xbc3f6562	-0.011681886
19	0x3d9a8691	0.07545198
20	0x3e1c5793	0.15267782
21	0x3cb3dd05	0.021955976
22	0x3cdfc985	0.027317772
23	0xbe3666f7	-0.17812715
24	0xbe20e459	-0.15712108
25	0xbd61040f	-0.05493551
26	0x3dbba86c	0.09162983
27	0xbd11324d	-0.03544836
28	0x3cb97b4d	0.022641802
29	0x3d61ca57	0.055124607
30	0xbcb5d71d	-0.0221973
31	0xbc135396	-0.008992096
32	0xbd485e8e	-0.0489183
33	0x3d43148f	0.047627028
34	0xbe104da4	-0.14092118
35	0xbe0f0c07	-0.13969432
36	0xbd40fb34	-0.047114566
37	0xbd60475d	-0.054755557
38	0xbd19e58e	-0.037572436
39	0x3e3bd5f5	0.18343337
40	0x3daa04ae	0.08301674
41	0x3da84563	0.082163595
42	0xbc01079e	-0.007875351
43	0xbaac3418	-0.0013138084
44	0x3d8d8116	0.06909387
45	0x3dc8bfbc	0.098021954
46	0x3cc4d891	0.024029048
47	0x3c875e53	0.01652447
48	0xbd9c3e2c	-0.07629046
49	0xbd6865d9	-0.056737754
50	0x3d067468	0.032825857
51	0xbdd42059	-0.10357732
52	0x3cb38cef	0.021917788
53	0xbcfff79c	-0.031245999
54	0xbe0c7ac2	-0.13718703
55	0x3d760d29	0.060071144
56	0xbd9ca284	-0.07648185
57	0xbd3e6025	-0.04647841
58	0x3d99bf75	0.07507221
59	0x3d4d30ec	0.050095484
60	0x3e1dd765	0.15414198
61	0x3d388246	0.045046113
62	0x3d5d0f96	0.053969942
63	0x3e0584a0	0.13038874
64	0x3e18a5a5	0.14906938
65	0x3de29a9f	0.11064648
66	0xbd0ca4cd	-0.034336854
67	0x3dc5d9a6	0.09660654
68	0xbd34b072	-0.044113584
69	0x3d941449	0.072304316
70	0x3dcd7227	0.100315385
71	0x3dcf4bdc	0.10121891
72	0x3d55742c	0.052112743
73	0xbd3ba9c3	-0.045816194
74	0x3cadbf14	0.021209277
75	0x3e28d16e	0.16486141
76	0xbd94cbd6	-0.07265441
77	0xbd338eb7	-0.043837275
78	0xbc1bb7b8	-0.009504251
79	0x3dc99d4e	0.098444566
80	0x3e27e716	0.16396746
81	0xbd802321	-0.062567
82	0x3d4af875	0.049553353
83	0x3db26543	0.087107204
84	0xbd87a07c	-0.06622407
85	0xbd942d7c	-0.07235238
86	0x3ca36c26	0.01994903
87	0xbe61d997	-0.2205566
88	0xbe3407ac	-0.17581052
89	0x3e2babe4	0.1676479
90	0x3dc96bdf	0.09835028
91	0x3d5a2eec	0.053267404
92	0x3d3a3c18	0.045467466
93	0x3d71713c	0.05894588
94	0x3d4c916b	0.04994337
95	0xbd64a04f	-0.055816945
96	0x3d519ae7	0.051173117
97	0xbc016361	-0.007897229
98	0xbd8d1e96	-0.068905994
99	0xbda25124	-0.079256326
100	0xbd89a397	-0.067206554
101	0xbdf74c41	-0.12075091
102	0x3d07403c	0.033020243
103	0x3caca773	0.02107594
104	0x3d1f3769	0.038871203
105	0xbd6661bc	-0.05624555
106	0xbc3a6314	-0.011376161
107	0x3c34a7f5	0.011026372
108	0x3da0a44b	0.078438364
109	0x3dbff24c	0.09372386
110	0xbda1fcf9	-0.07909579
111	0x3e0c0d8f	0.13677047
112	0xbd94dd15	-0.072687306
113	0xbe04ccad	-0.12968703
114	0xbd35a90c	-0.04435067
115	0xbdccf9b4	-0.100085646
116	0x3de703ce	0.112800226
117	0x3dd62d2c	0.104578346
118	0xbcdffa03	-0.027340895
119	0xbcfbaefd	-0.03072309
120	0x3cb08797	0.02154903
121	0x3a97f473	0.0011593237
122	0x3d466b7d	0.048442353
123	0x3ddb2452	0.10700287
124	0x3d436909	0.04770759
125	0x3de90341	0.11377574
126	0x3dab2d54	0.08358255
127	0xbda25852	-0.07927002
128	0x3ca46b5e	0.020070728
129	0x3dc2d922	0.09514071
130	0x3c9777da	0.018489767
131	0xbdee06d9	-0.116224
132	0xbe241a91	-0.1602576
133	0xbdcddab4	-0.1005148
134	0x3be74940	0.0070582926
135	0x3d6fc152	0.058533974
136	0x3c04c7e5	0.008104299
137	0x3c6f5f36	0.014610102
138	0xbd29c84a	-0.041450776
139	0x3e2f5fa1	0.17126323
140	0xbdcd8448	-0.10034996
141	0xbc8e24b0	-0.017351478
142	0x3d2f6067	0.042816546
143	0xbd9afebe	-0.075681195
144	0x3dc3ea17	0.095661335
145	0xbca28f44	-0.019843705
146	0xbc68e950	-0.014215782
147	0xbce145a6	-0.027499031
148	0x3e058959	0.13040675
149	0x3d70812b	0.058716934
150	0xbc2b4f59	-0.01045593
151	0xbe13f077	-0.14447199
152	0xbe3dc6c8	-0.1853286
153	0x3d5c65e9	0.053808127
154	0xbd6d1b98	-0.057887644
155	0xbca95b8f	-0.020673541
156	0x3e2f149a	0.17097703
157	0x3d65c667	0.056097414
158	0xbc6bb03e	-0.014385281
159	0xbda54e96	-0.0807163
160	0x3c908955	0.01764361
161	0xbd934984	-0.07191756
162	0xbded1634	-0.115765005
163	0xbd24c2c4	-0.040224805
164	0x3d9ceec3	0.07662728
165	0xbdb5c96b	-0.08876308
166	0x3d2384cd	0.03992157
167	0xbd7aede6	-0.061262034
168	0x3d9c158d	0.07621298
169	0xbd618503	-0.05505849
170	0xbd75c300	-0.06000042
171	0x3dbd961a	0.09257145
172	0xbc7010b7	-0.014652423
173	0x3e24f58c	0.16109294
174	0xbddc7e73	-0.10766306
175	0xbc8bcf67	-0.01706667
176	0xbd305e3b	-0.043058615
177	0xbdbda65b	-0.092602454
178	0xbe17b810	-0.14816308
179	0xbdc61d0b	-0.09673508
180	0xbd662bc9	-0.0561941
181	0x3df4cf05	0.11953548
182	0xbb12f6e6	-0.0022424995
183	0xbd8a89c1	-0.06764556
184	0x3cc97f8f	0.024596957
185	0xbc087cbc	-0.00833052
186	0xbde584e4	-0.112069875
187	0x3de63aad	0.1124166
188	0xbd655b8d	-0.055995513
189	0xbd543624	-0.051809445
190	0x3decf543	0.115702175
191	0x3dd9a42f	0.10627019
192	0x3dea83b7	0.11450904
193	0x3e1b466d	0.15163584
194	0xbd668ad3	-0.056284737
195	0xbce77c65	-0.028257558
196	0xbc297f7d	-0.010345337
197	0x3d80da54	0.06291643
198	0x3d975e63	0.0739105
199	0xbc4d2f39	-0.012523466
200	0x3cd8a12b	0.026444038
201	0xbd51ad89	-0.051190887
202	0x3dc81db4	0.097712904
203	0x3d234e97	0.03986987
204	0x3de1849d	0.11011622
205	0xbcb1ec33	-0.021719074
206	0x3ba0d420	0.0049081
207	0x3dfa2ba8	0.12215358
208	0x3d23c2cd	0.0399807
209	0x3df06225	0.117374696
210	0xbdd95468	-0.10611802
211	0x3ddbd6f8	0.107343614
212	0x3e0cdfc4	0.13757235
213	0x3e0c99da	0.13730565
214	0xbdc9e2f7	-0.09857743
215	0xbcdf04c3	-0.02722395
216	0xbd4730c2	-0.048630483
217	0xbd8220ec	-0.063539356
218	0x3df0aa3c	0.1175122
219	0xbe556a55	-0.20841344
220	0x3d9295f8	0.071575105
221	0x3dd6df16	0.10491769
222	0x3cf1f16e	0.029534068
223	0xbb40118a	-0.002930733
224	0xbdfffb27	-0.124990754
225	0x3d6579cf	0.05602437
226	0xbe0977cb	-0.13424604
227	0xbddbe6fa	-0.10737415
228	0xbd72e93f	-0.059304472
229	0xbdda3d8c	-0.106562704
230	0xba8daf34	-0.0010809661
231	0x3e0c78d9	0.13717975
232	0x3dec6394	0.115424305
233	0xbd50d62a	-0.050985493
234	0x3d5fafcf	0.054611024
235	0x3cda5820	0.02665335
236	0xbc9df11d	-0.01928001
237	0x3d25955b	0.04042564
238	0xbd9b23c6	-0.075751826
239	0xbdacbfbd	-0.08435009
240	0x3c80d44d	0.015726233
241	0x3daf7657	0.085674934
242	0xbe5eaf43	-0.21746545
243	0x3de0e6c8	0.10981518
244	0xbd020dbc	-0.03175138
245	0x3dce3673	0.10068979
246	0x3dcf6db0	0.10128343
247	0x3e15d99f	0.14633797
248	0xbca149ae	-0.019688454
249	0xbe021bae	-0.12705871
250	0xbdacbc95	-0.08434407
251	0xbd3a7f01	-0.045531277
252	0x3d19f730	0.037589252
253	0x3d12acd5	0.035809357
254	0x3db9a346	0.09064345
255	0xbd9e48d5	-0.07728735

encoder.rnn.bias_ih_l0 f4 [192]
0	0xbda0427a	-0.078251794
1	0xbdf23b74	-0.11827746
2	0x3d8189c4	0.06325105
3	0x3d9ccdbb	0.076564275
4	0x3d13f15b	0.036118846
5	0xbd7cb772	-0.061698385
6	0xbb55ad9b	-0.0032604698
7	0x3da7f026	0.082001016
8	0xbe22b8ad	-0.1589076
9	0x3cf0a4a0	0.029375374
10	0xbd6e7dc5	-0.058225412
11	0xbd92cca1	-0.07167936
12	0x3d839848	0.0642553
13	0x3d950fa8	0.07278377
14	0x3c452305	0.012032275
15	0x3e1c49d9	0.15262546
16	0x3ca095f4	0.019602753
17	0x3da4686f	0.080277316
18	0x3e157cb1	0.14598347
19	0xbdbba339	-0.091619916
20	0x3dca1352	0.09866966
21	0x3d666987	0.056252982
22	0xbdec825c	-0.115483016
23	0xbda1362d	-0.07871661
24	0xbd7dcb2d	-0.06196134
25	0x3d4a8069	0.049438868
26	0xbd872ccb	-0.066003405
27	0x3d2d41ac	0.042298958
28	0xbda5854e	-0.080820665
29	0x3e0fe94a	0.14053836
30	0x3ca66088	0.020309702
31	0x3d850b43	0.064962886
32	0x3d5cdd59	0.05392203
33	0xbdec7903	-0.11546519
34	0x3e06949f	0.13142632
35	0xbbe07966	-0.0068504093
36	0x3c922198	0.017838284
37	0x3e0fe3c5	0.14051731
38	0xbe1a9d63	-0.15099101
39	0xbc9f1503	-0.019419199
40	0x3df4bee7	0.11950474
41	0x3d0dcb9e	0.034618013
42	0xbd90287b	-0.07038971
43	0x3d8f48ad	0.06996284
44	0x3dd40326	0.10352163
45	0xbe09faf7	-0.13474642
46	0xbd851d88	-0.06499773
47	0xbd48b8e5	-0.049004454
48	0x3c9d5bb3	0.019208765
49	0x3bcfa5be	0.0063368967
50	0xbd00da53	-0.03145821
51	0xbe04e073	-0.12976246
52	0xbdacf140	-0.08444452
53	0x3dd5e734	0.10444489
54	0x3c1b136e	0.009465082
55	0xbdcd4b17	-0.10024088
56	0xbda34a5a	-0.07973166
57	0xbd3d02fa	-0.046145417
58	0x3d2816f6	0.041037522
59	0xbd3589d5	-0.0443209
60	0xbd950147	-0.07275634
61	0xbe5b6356	-0.21424612
62	0x3d034679	0.03204963
63	0xbe1dc6fb	-0.15407936
64	0x3db11906	0.08647351
65	0x3e27773a	0.16354075
66	0x3e085073	0.13311939
67	0xbacf0e89	-0.0015797178
68	0x3d8271fe	0.063693985
69	0xbb5353b9	-0.0032245948
70	0x3cbb688f	0.022877006
71	0x3e26a4a8	0.16273749
72	0x3e7bb04a	0.24578968
73	0x3d47cac0	0.04877734
74	0x3e2160e5	0.15759619
75	0x3e4824d7	0.19545303
76	0x3e206f6c	0.15667504
77	0x3e52a2f3	0.20569973
78	0xbdb01746	-0.08598189
79	0x3d192d49	0.037396703
80	0x3e3ce59d	0.18446966
81	0x3c1109f4	0.008852471
82	0x3d4e1b48	0.050318986
83	0x3da04ffc	0.07827756
84	0x3e450ed8	0.19243944
85	0x3c6a96a4	0.014318142
86	0x3ded743c	0.115944356
87	0x3d996ade	0.074910864
88	0x3ce6054b	0.028078696
89	0x3e09f93f	0.13473986
90	0x3e03b6e5	0.12862737
91	0x3dbb4181	0.09143353
92	0xbc492bdd	-0.012278524
93	0x3e4935aa	0.19649377
94	0x3c8f74f3	0.01751182
95	0x3cee06f7	0.029056055
96	0x3e1adaae	0.15122482
97	0x3e909433	0.28238067
98	0x3de7c42d	0.113167144
99	0x3d2763b8	0.040866584
100	0x3dd9f707	0.1064282
101	0x3e01da01	0.12680818
102	0x3dfaa7d4	0.12239042
103	0xbd3c2921	-0.04593766
104	0xbda4c28d	-0.0804492
105	0x3dc2d402	0.095130935
106	0x3dc58787	0.096449904
107	0x3dc6325c	0.09677574
108	0xbe6776fd	-0.22603984
109	0x3e5112a9	0.20417275
110	0xbccd4e48	-0.025061741
111	0x3e4bb1ec	0.1989209
112	0x3e475f67	0.19469987
113	0x3da6ab28	0.08138114
114	0xbd162e7b	-0.03666542
115	0x3e51ed1a	0.20500603
116	0x3d5d95bd	0.05409788
117	0x3e088516	0.13332018
118	0x3cb68ec4	0.022284873
119	0xbd85d0d0	-0.065339684
120	0x3e429e9f	0.19005822
121	0x3df5efb9	0.12008614
122	0x3e416bf7	0.18888842
123	0x3df02525	0.11725835
124	0x3d85a6c7	0.06525951
125	0x3da55fbf	0.08074903
126	0x3d9c2450	0.076241136
127	0x3bfbdb7c	0.0076860767
128	0xbe1dda44	-0.15415293
129	0xbde99a69	-0.114064045
130	0x3b71e3c4	0.003690944
131	0xbe263636	-0.16231617
132	0xbca9f8ef	-0.020748584
133	0xbdf8a06d	-0.12139974
134	0x3cb3267b	0.021868935
135	0x3cd4b314	0.025964297
136	0xbe100942	-0.14066032
137	0xbdb4c443	-0.088264965
138	0xbd781fb1	-0.0605771
139	0xbdd77158	-0.105196655
140	0xbe2a2c86	-0.16618547
141	0xbd971b5b	-0.073782645
142	0x3c1f6110	0.009727731
143	0xbd06426e	-0.032778196
144	0xbe0a6800	-0.13516235
145	0x3b803754	0.0039128456
146	0xbe014447	-0.12623702
147	0xbd038fe6	-0.032119654
148	0x3c623929	0.013807573
149	0xbca1123b	-0.019662013
150	0xbc992a0c	-0.018696807
151	0x3e025f01	0.12731554
152	0x3dd8ef38	0.10592502
153	0x3c9e7107	0.019341005
154	0x3e0955ee	0.13411686
155	0xbe186b01	-0.14884569
156	0xbcab21a5	-0.020890066
157	0xbcd72aba	-0.02626549
158	0x3cbe029a	0.0231946
159	0x3c97e502	0.018541817
160	0xbe34e57e	-0.1766567
161	0x3e0efbed	0.1396329
162	0x3d1905ab	0.03735892
163	0x3b740f1a	0.0037240447
164	0x3d57e55b	0.052708965
165	0xbdbe87d6	-0.093032524
166	0xbc82a487	-0.015947593
167	0x3d7549e7	0.059884932
168	0x3d513e8c	0.05108504
169	0xbde7f2d2	-0.11325611
170	0xbc7ebe05	-0.015548234
171	0x3dce653f	0.10077905
172	0x3d8b6385	0.06806091
173	0x3c6461c2	0.013939323
174	0xbdbdcfe3	-0.09268167
175	0x3bda3e9f	0.006660297
176	0xbd825f82	-0.06365873
177	0xbd7b968e	-0.061422877
178	0x3dbf0201	0.09326554
179	0x3daafeba	0.083493665
180	0x3d7a9239	0.061174605
181	0xbdb38323	-0.08765247
182	0xbdc22704	-0.09480098
183	0x3d6ac226	0.05731406
184	0xbb006433	-0.0019590973
185	0xbd479b78	-0.04873225
186	0x3dbfe35e	0.09369539
187	0x3d579006	0.052627586
188	0x3ce07352	0.027398739
189	0x3dcfe918	0.10151881
190	0xba49ea79	-0.00077024807
191	0x3c5eb941	0.013593973

encoder.rnn.bias_hh_l0 f4 [192]
0	0x3d00a7db	0.03141008
1	0x3c2e5d16	0.010642311
2	0xbd7903dd	-0.0607947
3	0xbd3f3e4a	-0.046690263
4	0xbd47ae17	-0.04875001
5	0x3db5e676	0.088818476
6	0x3d917b41	0.07103587
7	0x3c8e4a8f	0.017369537
8	0xbd4febcd	-0.050761987
9	0xbd3a5276	-0.045488797
10	0xbd4c62d1	-0.049898926
11	0xbdadef81	-0.08492947
12	0x3dbdd243	0.0926862
13	0xbd528eb2	-0.051405616
14	0xbd9d1918	-0.07670802
15	0xbd8cc999	-0.06874389
16	0xbba195ab	-0.004931172
17	0xbc8b83dd	-0.01703065
18	0x3d4697d6	0.048484646
19	0xbdf154c7	-0.11783748
20	0xbcb1676b	-0.021655759
21	0xbdca3a9f	-0.09874462
22	0x3dd7cc6c	0.10537037
23	0x3db5ef59	0.088835426
24	0x3d180854	0.037117317
25	0xbd2c00eb	-0.041993063
26	0x3e133eaa	0.14379373
27	0xbbc48037	-0.0059967297
28	0x3cf396d3	0.029735005
29	0x3de5efee	0.112274036
30	0x3c813ff5	0.015777567
31	0x3db4c077	0.08825772
32	0x3d8d73be	0.06906842
33	0xbd3e9bd4	-0.046535328
34	0xbde09e77	-0.10967725
35	0x3c610e49	0.013736316
36	0x3d9d723d	0.07687805
37	0x3bf5801b	0.007492078
38	0xbdeec33d	-0.116583325
39	0xbd27b8ec	-0.04094784
40	0x3d33b236	0.043871127
41	0xbc4a1617	-0.012334368
42	0xbd72b26a	-0.05925218
43	0x3ca28ab1	0.019841524
44	0xbd047269	-0.032335673
45	0xbe064329	-0.13111557
46	0x3e30c3fd	0.17262264
47	0xbd769d6a	-0.060208715
48	0x3d6a20de	0.05716025
49	0xbc8127a0	-0.015765965
50	0xbd0f0597	-0.03491744
51	0xbdceca7f	-0.10097217
52	0x3d94e858	0.072708786
53	0x3d4f9885	0.050682563
54	0xbd4027b2	-0.046912856
55	0x3db3c5b3	0.087779425
56	0xbd9df568	-0.07712823
57	0x3c21ec45	0.009882991
58	0xbccd4715	-0.025058309
59	0x3d9365ad	0.071971275
60	0xbc8d8488	-0.01727511
61	0xbe55a2da	-0.20862904
62	0xbc984644	-0.018588193
63	0xbe04cacc	-0.12967986
64	0x3de344fa	0.110971406
65	0x3bbf99e8	0.0058472045
66	0x3bd2dff2	0.006435388
67	0x3cddd395	0.02707843
68	0x3e0fd02c	0.14044255
69	0xbc227344	-0.009915177
70	0xbc9c74c9	-0.019098656
71	0x3da36cbd	0.079797246
72	0x3e2e2588	0.17006505
73	0x3d472088	0.04861501
74	0x3dd08745	0.101820506
75	0x3e1b1e71	0.15148331
76	0x3e169538	0.1470536
77	0x3e228343	0.15870385
78	0xbe249ab9	-0.16074647
79	0x3e1284a0	0.14308405
80	0x3d86eca7	0.065881066
81	0xbd95deef	-0.07317912
82	0x3e7376a6	0.2377573
83	0x3dcea79b	0.10090562
84	0x3e596d1a	0.21233025
85	0x3d431a57	0.04763254
86	0x3e05525e	0.13019702
87	0x3de5f886	0.11229043
88	0x3e1d271d	0.15346952
89	0x3dc9a26b	0.09845432
90	0x3e23bc00	0.15989685
91	0x3e11bbad	0.14231749
92	0x3dcd699b	0.10029908
93	0x3e36d116	0.17853197
94	0x3db31830	0.08744848
95	0x3d2fb151	0.04289371
96	0xbd2ef18b	-0.042710822
97	0x3e6b4768	0.22976458
98	0x3d779105	0.060441036
99	0x3e09b1bf	0.13446711
100	0x3ccca925	0.024982998
101	0xbd08570b	-0.033286136
102	0x3e2982c2	0.16553786
103	0xbe712bab	-0.23551814
104	0xbdd963d4	-0.10614744
105	0xbd64e6ef	-0.055884298
106	0x3c90b3b1	0.017663809
107	0x3e8856e3	0.2662879
108	0xbc947046	-0.018119942
109	0x3e342d89	0.17595495
110	0x3e4e6112	0.20154217
111	0xbb26cd30	-0.002545189
112	0x3d9c0ca8	0.076196015
113	0x3daa426c	0.0831345
114	0xbc3c37ae	-0.011487884
115	0x3dc8897d	0.09791849
116	0xbd424705	-0.04743101
117	0x3d671531	0.056416694
118	0xbce29ba5	-0.027662108
119	0xbd98e0d4	-0.074647576
120	0x3e2464bb	0.1605405
121	0x3e11777b	0.14205734
122	0x3da433c8	0.08017689
123	0x3d9d0317	0.07666605
124	0x3e46b583	0.19405179
125	0x3e74d21a	0.23908272
126	0x3e1ad25f	0.15119313
127	0x3dc1763b	0.09446379
128	0x3d6d3549	0.057912145
129	0x3d99f7cc	0.07517967
130	0xbd474105	-0.04864599
131	0xbd417c0a	-0.047237433
132	0x3dced459	0.10099096
133	0xbd9d5ee1	-0.07684112
134	0x3d5aa656	0.053381287
135	0xbdec52f0	-0.115392566
136	0xbe097455	-0.13423283
137	0x3b37119a	0.0027934075
138	0xbca4405c	-0.02005022
139	0xbcfbf371	-0.03075573
140	0xbd43ae8f	-0.047773894
141	0x3d0d8c4e	0.034557633
142	0xbd8c7c07	-0.06859594
143	0xbde2c243	-0.11072209
144	0xbd78fc9b	-0.06078778
145	0xbd8bef4a	-0.0683275
146	0xbd7220e8	-0.059113413
147	0x3c747844	0.014921252
148	0x3e07cafd	0.13261028
149	0xbc9f6888	-0.019459024
150	0x3ddffe65	0.10937194
151	0x3cc8069d	0.024417216
152	0x3db8ff64	0.09033087
153	0x3d38a8fe	0.04508304
154	0xbd112073	-0.035431337
155	0xbd93f531	-0.07224501
156	0x3cd1a691	0.02559212
157	0xbdef27ad	-0.116774894
158	0xbe08a8b8	-0.13345611
159	0x3d9e5076	0.077301905
160	0xbe372d70	-0.17888427
161	0x3dcde29b	0.10052987
162	0x3c83031a	0.01599269
163	0x3db1ad34	0.08675614
164	0x3c0aab72	0.008463727
165	0xbdd03be0	-0.1016767
166	0x3da689d3	0.08131757
167	0xbd24e1fe	-0.040254585
168	0x3c8db6dc	0.017299108
169	0xbd1347c8	-0.035957128
170	0x3e0d8794	0.1382125
171	0x3d803265	0.06259612
172	0xbd966beb	-0.073448025
173	0xbda379a3	-0.07982185
174	0xbd7f8c07	-0.0623894
175	0x3defe2a0	0.11713147
176	0x3c6fe8f0	0.014642939
177	0xbe09b62c	-0.134484
178	0x3dd853eb	0.10562881
179	0xbd0e5082	-0.034744747
180	0xbe185b73	-0.14878635
181	0x3defa5f7	0.11701577
182	0x3d82b2a1	0.06381727
183	0xbd22e346	-0.039767526
184	0x3d38057b	0.0449271
185	0xbcc5505d	-0.024086172
186	0x3d83f0dd	0.064424254
187	0x3d88d448	0.066811144
188	0x3d79aee1	0.060957793
189	0x3d87fe1a	0.06640263
190	0x3d86c16d	0.06579862
191	0x3d142c79	0.036175225

encoder.rnn.weight_ih_l0_reverse f4 [192, 20]
0	0xbcd6c963	-0.026219076
1	0x3e14537b	0.1448497
2	0x3d4da5d4	0.050206974
3	0xbc875d6b	-0.016524037
4	0xbd1f056b	-0.038823526
5	0xbdbf700f	-0.09347545
6	0xbcf86e6a	-0.030326087
7	0x3dd95755	0.106123604
8	0xbcc95337	-0.024575813
9	0x3d2839bf	0.041070696
10	0x3d418b1a	0.0472518
11	0xbcd4dda8	-0.0259846
12	0x3db9cb91	0.0907203
13	0x3d2e9062	0.042618163
14	0x3d77039d	0.06030618
15	0x3e12d0af	0.14337419
16	0x3d53843b	0.051639777
17	0x3b07626d	0.0020658032
18	0x3d363c8d	0.04449134
19	0x3c92988f	0.017895011
20	0xbbb756c1	-0.0055950587
21	0x3d958912	0.07301535
22	0xbd8bb79d	-0.06822131
23	0xbe0d3df8	-0.1379317
24	0x3e0f1506	0.13972864
25	0xbca168ba	-0.019703258
26	0xbcd94de1	-0.026526393
27	0xbc634f05	-0.01387382
28	0xbc9b9195	-0.018990317
29	0xbd8dac8e	-0.06917678
30	0xbdf2aeee	-0.118497714
31	0xbb7b5593	-0.0038350567
32	0xbe2aa541	-0.16664602
33	0xbe972c16	-0.29525822
34	0x3d766a29	0.060159836
35	0x3e05cefd	0.13067241
36	0x3c935216	0.017983478
37	0x3da814a4	0.08207062
38	0x3dafde45	0.085873164
39	0x3ca3801b	0.019958546
40	0x3c3528d8	0.011057101
41	0xbcb69474	-0.022287585
42	0xbde33478	-0.11093992
43	0x3e2f63a6	0.17127857
44	0x3dbcaa02	0.09212114
45	0x3e158a71	0.14603592
46	0x3c004ccc	0.00783081
47	0xbd0082ee	-0.031374864
48	0x3de7bd9b	0.11315461
49	0x3e32a329	0.17445053
50	0x3da01940	0.07817316
51	0xbd845996	-0.064624
52	0x3e3daa15	0.18521912
53	0x3b8229b1	0.003972255
54	0x3da9f3db	0.08298465
55	0x3db629f3	0.0889472
56	0x3d97bbc0	0.07408857
57	0x3da5b1e6	0.08090572
58	0x3d558db7	0.052137103
59	0x3d5d3c55	0.054012615
60	0x3d228af1	0.039683286
61	0x3c1a18b0	0.0094053
62	0xbd91d08e	-0.07119857
63	0x3d3ec72d	0.046576668
64	0x3c818be0	0.015813768
65	0xbd9d61f1	-0.076846965
66	0x3b5d2774	0.003374544
67	0x3d4b6f1e	0.049666516
68	0x3d9bf5de	0.07615255
69	0x3dc49bd8	0.09600037
70	0x3dd9de9c	0.106381625
71	0x3da05674	0.078289896
72	0xbcdea656	-0.027178925
73	0xbd9567f2	-0.072952166
74	0x3da3f122	0.08004977
75	0xbcd3dec4	-0.025863059
76	0xbd2cef62	-0.04222048
77	0xbd3c27fe	-0.045936577
78	0x3c2143b7	0.009842805
79	0xbd9104a6	-0.07080965
80	0xbd6f3c5d	-0.058407176
81	0x3e16f539	0.14741983
82	0x3dc4c951	0.096087106
83	0x3b4172f2	0.0029517976
84	0x3d26ab44	0.040690675
85	0x3d4203b7	0.047366824
86	0x3df6b5d5	0.120464005
87	0x3e338a2f	0.17533182
88	0x3dfed9d5	0.12443892
89	0x3c231691	0.009954111
90	0xbbc92c75	-0.006139333
91	0x3caf4b61	0.021398248
92	0xbdfa9b90	-0.122367024
93	0xbe2a15e5	-0.16609915
94	0x3d496e94	0.04917772
95	0x3d9f6b05	0.07784084
96	0xbd843c02	-0.06456758
97	0xbca3e3bb	-0.020006051
98	0x3c64e714	0.013971109
99	0xbd2fcbec	-0.042919084
100	0xbd85db86	-0.065360114
101	0xbd8c8f26	-0.06863241
102	0xbba3f712	-0.0050038183
103	0x3b26ea2e	0.0025469172
104	0xbdead752	-0.1146685
105	0xbd923192	-0.07138361
106	0x3d56c7b6	0.052436553
107	0x3dd341b1	0.10315264
108	0x3db2f886	0.08738808
109	0xbcca9cda	-0.024732996
110	0x3df70b8d	0.1206275
111	0xbc2944de	-0.010331361
112	0xbdbc0e16	-0.09182374
113	0xbd1983ce	-0.037479214
114	0xbd5b6cfb	-0.05357073
115	0x3dcac04c	0.09899959
116	0x3dbaac79	0.09114928
117	0xbcf0d391	-0.029397758
118	0x3d16f58b	0.03685526
119	0x3ccce401	0.025011064
120	0x3c1602ff	0.009155988
121	0xbcc83af6	-0.024442177
122	0x3e1c931a	0.1529049
123	0xbde64d6f	-0.11245238
124	0x3c194d98	0.009356879
125	0x3c789565	0.015172337
126	0x3e3805b4	0.17970926
127	0x3cc57827	0.024105145
128	0x3e334b26	0.17509136
129	0xbc8e11a7	-0.017342402
130	0x3d5d665c	0.054052696
131	0x3e44b8c9	0.19211115
132	0xbe21fa7f	-0.15818213
133	0xbe0f4308	-0.13990414
134	0xbb7d3f95	-0.0038642634
135	0x3e109550	0.14119458
136	0xbcb26fb0	-0.021781772
137	0x3c52cc0f	0.012866034
138	0x3e16226e	0.14661571
139	0x3e52efe7	0.20599328
140	0xbdbe3ef5	-0.09289352
141	0x3d92926c	0.07156834
142	0x3d3fa2ff	0.046786305
143	0xbdaa8ca1	-0.08327604
144	0xbdc1f7d9	-0.09471101
145	0x3dad65a2	0.084666505
146	0xbd792e43	-0.060835134
147	0x3dae2265	0.08502654
148	0x3d3ab055	0.04557832
149	0xbdb318b9	-0.0874495
150	0xbe025e19	-0.12731208
151	0x3cc71d52	0.024305973
152	0xbd5b590c	-0.05355172
153	0x3d9447c5	0.072402515
154	0xbd8ea873	-0.06965723
155	0xbdbcbc5b	-0.092156135
156	0x3912aaca	0.00013987269
157	0x3d89eda0	0.067347765
158	0xbe18313b	-0.1486253
159	0xbe0c923d	-0.1372766
160	0xbe37ccb1	-0.17949177
161	0xbcc72092	-0.024307523
162	0x3ced6b27	0.028981758
163	0x3e17c78c	0.14822215
164	0xbd3e3d48	-0.04644516
165	0x3d28cf4c	0.04121332
166	0x3d18e697	0.037329283
167	0x3df089cc	0.11745033
168	0x3bb8cbcf	0.0056395303
169	0x3e1d35f1	0.15352608
170	0xbd775ed9	-0.06039319
171	0xbd7c57b8	-0.061607093
172	0x3dff1100	0.12454414
173	0x3d3a1789	0.0454326
174	0x3df35088	0.118805945
175	0x3e1fb2af	0.15595506
176	0x3df73aa8	0.12071735
177	0xbd65ea90	-0.0561319
178	0xbd6c5088	-0.057693988
179	0x3b9f7dee	0.004867307
180	0x3d21e90a	0.039528884
181	0x3dace6c4	0.084424525
182	0x3e03e5dc	0.12880653
183	0xbb604d3c	-0.0034225723
184	0xbe2adb34	-0.16685182
185	0xbb9bbccc	-0.004752731
186	0x3ca72ea4	0.020407982
187	0xbd5ebe6f	-0.05438083
188	0xbdebc3af	-0.11511933
189	0xbdf83344	-0.12119153
190	0x3d7ffa55	0.062494595
191	0xbda49ca8	-0.08037692
192	0x3eaba83c	0.3352679
193	0x3e84de1a	0.259507
194	0x3c227f1f	0.009918003
195	0x3dad1397	0.08451002
196	0xbe2903ed	-0.16505404
197	0xbc980ec2	-0.018561725
198	0xbe030921	-0.12796451
199	0xbdfe7ee3	-0.124265455
200	0x3e0d9e1d	0.13829847
201	0xb9aae3f4	-0.00032594765
202	0xbc0733fe	-0.008252142
203	0xbe418367	-0.18897782
204	0xbd977cc7	-0.07396846
205	0xbe083d0b	-0.13304536
206	0xbc981579	-0.018564926
207	0xbdc05543	-0.093912624
208	0xba8bed6c	-0.0010675616
209	0xbe1be4c5	-0.15223987
210	0xbe133662	-0.14376214
211	0xbd31acac	-0.043377563
212	0x3e2a1430	0.16609263
213	0xbba9a688	-0.005177323
214	0xbaef7901	-0.0018270315
215	0x3c82e5c4	0.015978701
216	0x3ca52815	0.020160714
217	0xbc137abf	-0.009001433
218	0xbcf4f1da	-0.02990048
219	0xbd83c0d9	-0.06433267
220	0x3db114b9	0.08646531
221	0x3e1f3f06	0.15551385
222	0xbd65580d	-0.055992175
223	0x3da2b62e	0.07944904
224	0x3cfd5cac	0.030927978
225	0xbd647540	-0.05577588
226	0xbd9a637b	-0.07538506
227	0x3de7ca95	0.11317936
228	0x3dc42a8c	0.09578428
229	0x3d456284	0.048189655
230	0x3d8004d6	0.062509224
231	0x3c9bafad	0.019004667
232	0xbce444f1	-0.027864905
233	0xbdf572bb	-0.11984774
234	0xbdb8f9dd	-0.09032033
235	0xbd3fe28c	-0.04684691
236	0x3e02af09	0.12762083
237	0x3d5aff16	0.053465925
238	0xbb5ce7bb	-0.0033707458
239	0xbd5a9f42	-0.053374536
240	0xbdb99208	-0.090610564
241	0xbd3ae8b3	-0.045632076
242	0x3da273fa	0.07932277
243	0xbbcf82ae	-0.006332717
244	0x3d33c90e	0.043892913
245	0x3e31a92d	0.17349692
246	0x3c35eeeb	0.011104326
247	0xbd25eebf	-0.04051089
248	0xbd284a8c	-0.04108672
249	0x3e3bba61	0.18332817
250	0x3e1a37c9	0.15060343
251	0xbcb09972	-0.021557543
252	0x3e0cfef3	0.1376913
253	0xbda7b520	-0.08188844
254	0x3c8c0352	0.017091427
255	0xbcaaaf09	-0.020835416

encoder.rnn.weight_hh_l0_reverse f4 [192, 64]
0	0x3d03e32b	0.032199066
1	0x3b57414a	0.0032845312
2	0x3cf615cc	0.03003969
3	0x3da456ca	0.08024366
4	0xbdea525d	-0.11441491
5	0x3b6bca7b	0.0035978842
6	0x3d9a2d96	0.07528226
7	0x3e19bf07	0.15014277
8	0x3e86c838	0.2632463
9	0x3d83b9e9	0.06431944
10	0xbe7e3213	-0.2482379
11	0x3e17284e	0.14761469
12	0xbd5d02d2	-0.053957768
13	0xbe4e3b94	-0.20139915
14	0x3e8d7c52	0.2763391
15	0xbb94c409	-0.004539971
16	0xbcfe7282	-0.031060461
17	0x3d6150a5	0.05500855
18	0x3d90cf31	0.070707686
19	0xbe671f22	-0.2257047
20	0x3e3068ec	0.17227525
21	0xbda6f64a	-0.08152445
22	0xbd9677f7	-0.073471
23	0x3e02f47a	0.12788573
24	0xbe08c1ae	-0.13355133
25	0x3db76480	0.08954716
26	0x3dbee73a	0.09321447
27	0xbc7dfad7	-0.015501699
28	0xbe9f0463	-0.31058034
29	0xbab75293	-0.0013986401
30	0xbd5182c7	-0.05115011
31	0xbddba276	-0.10724346
32	0x3cf41c49	0.029798644
33	0xbde14ca9	-0.1100095
34	0xbd331e99	-0.043730352
35	0x3cbdd44a	0.023172516
36	0x3db39cdc	0.08770153
37	0x3d10fd3a	0.035397746
38	0xbdfdb41f	-0.12387871
39	0xbdb28139	-0.087160535
40	0x3d288c65	0.041149516
41	0xbe09416a	-0.1340386
42	0xbe2a362c	-0.16622227
43	0x3e193a9a	0.14963761
44	0xbc9d8548	-0.019228593
45	0xbe546ae8	-0.20743906
46	0x3a0b8a2a	0.0005323017
47	0xbc5db886	-0.013532763
48	0xbe6ee3c3	-0.23329072
49	0x3d46d972	0.048547216
50	0x3e9b2ad3	0.3030611
51	0xbe08b4f0	-0.13350272
52	0xba3159fb	-0.00067654223
53	0x3b80ff48	0.003936682
54	0x3ce65d3e	0.028120633
55	0xbda92552	-0.082590714
56	0xbe2af8f4	-0.1669653
57	0xbe4739f7	-0.19455706
58	0x3d826fb3	0.06368961
59	0x3e4c17b0	0.19930911
60	0xbd06888b	-0.03284506
61	0x3d9fbba1	0.07799459
62	0x3ca5f8fe	0.02026033
63	0x3dc603b8	0.09668678
64	0xbd09c625	-0.03363623
65	0xbe337e34	-0.17528611
66	0x3d31eb2e	0.043437175
67	0x3d7e6407	0.062107112
68	0xbd9dc8c9	-0.07704312
69	0xbdd41b56	-0.103567764
70	0xbcc2aa84	-0.023762949
71	0x3dc5a008	0.09649664
72	0x39e0b446	0.00042858924
73	0x3c926846	0.017871987
74	0xbddf9cca	-0.10918577
75	0x3d7102c6	0.058840536
76	0x3e1bd2d1	0.15217139
77	0x3bdc856c	0.0067297723
78	0x3dac983a	0.084274724
79	0xbde92ec9	-0.11385877
80	0x3e060756	0.13088736
81	0xbdb91fc3	-0.09039261
82	0xbe435888	-0.1907674
83	0xbccc4023	-0.024932927
84	0x3d52f3e0	0.05150211
85	0x3e129c22	0.14317372
86	0x3ab65e9e	0.0013913696
87	0x3d67bae0	0.056574702
88	0xbe20af5c	-0.15691894
89	0x3dd4eb18	0.10396403
90	0xbd739b81	-0.059474472
91	0xbe2a0b62	-0.16605905
92	0xbe109397	-0.14118801
93	0xbcdfcc97	-0.027319236
94	0xbd446d94	-0.047956064
95	0xbdbd9fbc	-0.092589825
96	0xbcc62e34	-0.024191953
97	0xbd84a60a	-0.06476982
98	0x3d62fcfe	0.055417053
99	0x3e2078a2	0.15671018
100	0x3dcc1dfb	0.09966656
101	0xbe345ab5	-0.17612727
102	0xbe02138c	-0.12702769
103	0xbded1929	-0.115770645
104	0x3e4d7bc1	0.2006674
105	0xbe269e53	-0.16271333
106	0xbdf38eac	-0.11892447
107	0xbd07f405	-0.0331917
108	0x3c26856b	0.010163645
109	0x3e3259ab	0.17417018
110	0xbda23053	-0.07919373
111	0xbc8d6c06	-0.017263424
112	0xbd7f42a3	-0.06231941
113	0xbd9c4e16	-0.07632081
114	0x3d877efb	0.066160165
115	0xbe198ee7	-0.14995919
116	0xbd64acc3	-0.05582882
117	0xbe2ad083	-0.16681103
118	0x3d7fee51	0.062483136
119	0x3bb7ccd7	0.0056091356
120	0xbd50aac7	-0.050944116
121	0xbde5c9f1	-0.11220158
122	0x3e35484d	0.17703362
123	0xbcb52276	-0.022111159
124	0xbe1ce8ce	-0.15323183
125	0xbde4b7b1	-0.11167849
126	0xbd26b00e	-0.040695243
127	0xbdd95eda	-0.106137946
128	0xbddc09ef	-0.10744082
129	0xbe08e0e1	-0.13367034
130	0x3ce66191	0.028122695
131	0x3c7b40a6	0.015335238
132	0xbd97d2b0	-0.07413232
133	0xbe1f6062	-0.15564111
134	0x3b6d15a2	0.0036176224
135	0x3e26c794	0.1628707
136	0x3e4b8fa5	0.19879015
137	0x3d8705bf	0.06592893
138	0xbdfb1871	-0.12260521
139	0x3da95429	0.082680054
140	0xbc98c07b	-0.01864647
141	0x3da04830	0.07826269
142	0x3d168f31	0.03675765
143	0xbd9c6161	-0.07635761
144	0x3c5500ff	0.013000726
145	0x3bc1db66	0.005916047
146	0xbd83fecf	-0.06445085
147	0xbe44632b	-0.19178455
148	0x3da2f709	0.079572745
149	0xbd8ecb26	-0.06972341
150	0xbe0725f3	-0.1319807
151	0x3e5f0a3c	0.21781248
152	0x3d0e985a	0.034813263
153	0x3d13c096	0.036072336
154	0xbda894cf	-0.08231508
155	0xbd9401c8	-0.07226902
156	0xbd41ddea	-0.047330774
157	0x3de54928	0.11195594
158	0xbdb812b6	-0.08987944
159	0x3d5a6f93	0.05332906
160	0xbd167c53	-0.03673966
161	0x3ceb398a	0.02871396
162	0x3e087ded	0.13329287
163	0x3dc18cda	0.094506934
164	0x3db84f91	0.08999551
165	0xbd829978	-0.06376928
166	0x3cc4ec35	0.024038414
167	0xbdc42375	-0.095770754
168	0x3d825a8f	0.06364929
169	0xbdc5594d	-0.096361734
170	0x3c5004f0	0.01269649
171	0x3e2a2605	0.16616066
172	0xbdbf1c50	-0.09331572
173	0xbdd548bd	-0.10414264
174	0xbe697999	-0.22800292
175	0x3cf55556	0.029947918
176	0xbb87bd27	-0.0041424218
177	0xbcbb405e	-0.022857841
178	0xbdf65d1d	-0.12029479
179	0xbced5514	-0.028971232
180	0xbddc0fb0	-0.1074518
181	0xbd1753a3	-0.036944997
182	0x3d5e06f3	0.054205846
183	0xbdc1adb6	-0.09456961
184	0xbc397ee1	-0.011321754
185	0xbe04e343	-0.12977318
186	0xbc85f7e7	-0.01635356
187	0x3e5883b0	0.21143985
188	0x3d3ca96e	0.04606002
189	0x3dee9a4d	0.11650524
190	0x3ce2fda0	0.027708828
191	0xbe049732	-0.12948301
192	0xbcb41cbf	-0.021986363
193	0x3ca05b36	0.019574743
194	0x3daa03fb	0.083015405
195	0x3de15252	0.110020295
196	0xbd826216	-0.06366365
197	0xbd97d748	-0.074141085
198	0x3db87175	0.09006015
199	0x3d386be9	0.045024786
200	0xbd02bb21	-0.03191674
201	0xbe0c85fe	-0.13722989
202	0x3e62a6d6	0.22133955
203	0x3e3d9eca	0.18517604
204	0xbb8d18e6	-0.0043059466
205	0x3cf7f436	0.030267816
206	0xbda257f7	-0.07926934
207	0xbc4a2a61	-0.0123392055
208	0xbe0dda11	-0.13852717
209	0xbe3e21fb	-0.1856765
210	0xbde0828c	-0.109624
211	0x3e6113e2	0.21980241
212	0x3c479119	0.01218059
213	0xbda25d68	-0.07927972
214	0x3df4ad82	0.119471565
215	0xbe0bed0a	-0.13664642
216	0xbdb3b085	-0.08773903
217	0xbd8e0aaa	-0.06935628
218	0x3cdd7853	0.027034914
219	0xbdae5d59	-0.085138984
220	0xbd8bacc8	-0.06820065
221	0xbd704362	-0.05865801
222	0xbdaadebd	-0.08343265
223	0x3c5641eb	0.0130772395
224	0xbe1da17f	-0.15393637
225	0xbac767ff	-0.0015213488
226	0xb9e4094b	-0.00043494473
227	0x3e1d1c68	0.15342867
228	0x3dc24cfa	0.09487338
229	0x3d619b1a	0.055079557
230	0xbc73c778	-0.0148791
231	0x3cce7fcf	0.025207428
232	0xbe01bba7	-0.1266924
233	0xbe0efe6f	-0.13964246
234	0x3d968f37	0.07351535
235	0xbdd9ef87	-0.10641389
236	0xbce38871	-0.027775021
237	0x3e317aec	0.17332047
238	0x3dbaa1bf	0.09112882
239	0x3de353bc	0.110999554
240	0xbe000be1	-0.12504531
241	0xbda6b6a5	-0.081403054
242	0xbe5847d6	-0.21121153
243	0xbde9525a	-0.113926604
244	0xbdc74889	-0.09730632
245	0x3d4d3fbc	0.05010961
246	0xbe1c8e6e	-0.15288708
247	0x3e6aad26	0.22917613
248	0x3d1515f7	0.0363979
249	0xbda779c2	-0.0817752
250	0xbd8dfd17	-0.06933039
251	0x3cd1db3f	0.02561724
252	0xbd8bfc8a	-0.068352774
253	0xbac17b40	-0.0014761463
254	0xbda0a34c	-0.078436464
255	0xbd1352a7	-0.035967495

encoder.rnn.bias_ih_l0_reverse f4 [192]
0	0xbdb04b36	-0.08608095
1	0xbd9961fc	-0.07489392
2	0x3d7a47fa	0.0611038
3	0xbb6b3102	-0.0035887365
4	0xbd8c7804	-0.06858829
5	0xbdb70b9d	-0.08937762
6	0xbd05abdd	-0.032634605
7	0xbcbba70c	-0.022906803
8	0xbd4d6525	-0.050145287
9	0x3cadc8f6	0.02121399
10	0xbd85ad9c	-0.06527254
11	0xbdfa791c	-0.12230131
12	0xbd030e7d	-0.03199624
13	0xbdaaea0d	-0.08345423
14	0x3d9baac0	0.07600927
15	0x3e0e04df	0.13869046
16	0xbdcbb142	-0.099459186
17	0x3d86a915	0.065752186
18	0xbe02425e	-0.1272063
19	0xbb103767	-0.0022005679
20	0xbcb71197	-0.022347255
21	0x3d1f685d	0.038917888
22	0xbe38756a	-0.1801354
23	0x3dd27ea3	0.1027806
24	0xbd955185	-0.07290939
25	0xbdd982b1	-0.106206305
26	0xbe1a4e2f	-0.15068887
27	0x3e1a1502	0.15047076
28	0x3cb6d175	0.022316674
29	0x3dd3c590	0.103404164
30	0xbdc234fe	-0.09482764
31	0x3d8cad20	0.068689585
32	0x3e0fe210	0.1405108
33	0xbdb33241	-0.087498195
34	0x3dd4e3e2	0.10395028
35	0xbc5d3aa2	-0.013502749
36	0x3da94ccb	0.082666
37	0x3d92d34a	0.071692064
38	0x3d22606c	0.039642736
39	0xbc855a52	-0.01627842
40	0x3e292245	0.16516979
41	0x3d3bd9ca	0.045861997
42	0x3cf2110c	0.029549144
43	0x3db9ea4c	0.09077892
44	0x3d519d80	0.051175594
45	0xbddc75cb	-0.10764655
46	0x3cbabceb	0.022795161
47	0xbdad01d9	-0.08447618
48	0x3daa3042	0.08309986
49	0xbe1405fb	-0.14455406
50	0x3d24df55	0.04025205
51	0xbd08342d	-0.033252884
52	0x3ce81450	0.028329998
53	0xbc3e1c73	-0.0116034625
54	0xbdeb7605	-0.1149712
55	0x3cb937fc	0.022609703
56	0x3e7d2860	0.24722433
57	0xbd530859	-0.051521633
58	0xbbdc833e	-0.0067295125
59	0x3de51172	0.11184968
60	0x3dec9fc4	0.115539104
61	0x3db27bd3	0.08715024
62	0x3d13c933	0.03608055
63	0xbe0bf899	-0.13669051
64	0xbd3eeace	-0.046610646
65	0xbd17baf8	-0.03704354
66	0xbe8f67ae	-0.2800879
67	0xbe3379f2	-0.17526987
68	0x3c6cfecf	0.014465048
69	0x3e6400f3	0.22265987
70	0x3e77c206	0.24195108
71	0x3e34ffe4	0.1767574
72	0x3dc16aa7	0.094441704
73	0xbe245f49	-0.16051973
74	0x3d14a54b	0.03629045
75	0xbe602d49	-0.21892275
76	0x3dbcf684	0.092267066
77	0xbd27e336	-0.04098817
78	0xbdef4d4f	-0.11684667
79	0xbd4b9fcf	-0.049712952
80	0x3dd9bc7a	0.10631652
81	0xbe838165	-0.25684658
82	0xbe538cb2	-0.2065914
83	0x39dee5ed	0.00042514448
84	0xbd0c8641	-0.034307722
85	0x3d7d72dc	0.061877117
86	0xbd29e842	-0.041481264
87	0x3d238434	0.039921
88	0xbde67a29	-0.11253769
89	0xbd2c1c5b	-0.04201923
90	0xbd0084f1	-0.031376783
91	0xbdae9963	-0.0852535
92	0x3d8f3641	0.0699277
93	0xbddd98bf	-0.1082015
94	0x3d9d0056	0.0766608
95	0x3d961398	0.07327956
96	0x3dd20b93	0.10256114
97	0x3d374868	0.044746786
98	0x3d952854	0.072830826
99	0x3e4bd914	0.19907027
100	0xbe6e23b6	-0.2325581
101	0xbda20861	-0.079117544
102	0x3dcfd01c	0.101471156
103	0x3e3a61a9	0.18201317
104	0xbc9e12ef	-0.019296138
105	0x3db47745	0.08811811
106	0x3dc2c70b	0.09510621
107	0x3dd19224	0.10232952
108	0xbd11edfd	-0.035627354
109	0x3d719c9b	0.05898724
110	0xbd9c9973	-0.076464556
111	0xbd5e5abe	-0.054285757
112	0xbd9b3106	-0.0757771
113	0x3e034555	0.12819417
114	0xbc187d61	-0.009307236
115	0x3c96c052	0.018402252
116	0x3d771562	0.060323127
117	0xbe35c3b5	-0.17750438
118	0xbde193ae	-0.11014496
119	0x3dea8b9d	0.1145241
120	0xbdb7f173	-0.089816
121	0xbe28be14	-0.16478759
122	0x3d8dfaac	0.069325775
123	0x3d9cdfb8	0.076598585
124	0xbde58f96	-0.112090275
125	0xbcd39b96	-0.025831025
126	0xbde79f34	-0.113096625
127	0xbdfd241b	-0.12360402
128	0x3d5d99b8	0.054101676
129	0x3cdbc426	0.02682693
130	0xbd2ddec3	-0.04244877
131	0xbc5828b3	-0.013193297
132	0x3d983106	0.074312255
133	0x3d0e75f9	0.034780476
134	0xbddf8c5b	-0.109154426
135	0x3d2f15f9	0.042745564
136	0xbdda017a	-0.10644813
137	0xbdbeb833	-0.09312477
138	0xbd2dbff0	-0.042419374
139	0x3e12efad	0.14349242
140	0xbdb987ea	-0.09059127
141	0x3c573dfd	0.013137338
142	0xbe2cc8ce	-0.16873476
143	0x3e0a528b	0.1350805
144	0xbc17f29e	-0.009274153
145	0x3dc656ee	0.09684549
146	0xbd710cc2	-0.058850057
147	0x3c8300d7	0.015991611
148	0xbd920ead	-0.071317054
149	0x3c25ea41	0.010126651
150	0xbd11153c	-0.03542064
151	0x3c39631a	0.011315132
152	0x3dc030d6	0.09384315
153	0xbde913c0	-0.1138072
154	0x3cbaa204	0.022782333
155	0x3dc30344	0.09522107
156	0x3d33604a	0.043793
157	0x3e1b29f6	0.15152726
158	0x3e0a950c	0.1353342
159	0xbb3bceec	-0.002865727
160	0x3deca5ce	0.11555062
161	0x3cab5d95	0.020918647
162	0x3dd4175b	0.10356017
163	0x3d3e5ef9	0.04647729
164	0x3c86c09c	0.016449265
165	0xbba8f03e	-0.005155592
166	0x3c1420ef	0.009041055
167	0x3dec048c	0.11524305
168	0xbd0f3336	-0.034960948
169	0x3d0c095f	0.034188624
170	0x3d9088f3	0.07057371
171	0xbd7665f8	-0.06015584
172	0xbdfd3180	-0.12362957
173	0x3df88474	0.121346384
174	0x3d575cc0	0.052578688
175	0xbdcd33e6	-0.100196645
176	0x3e31d913	0.17367963
177	0xbe2f55da	-0.17122594
178	0xbc5315bd	-0.012883601
179	0x3c84410b	0.016144296
180	0x3ddc1d8d	0.10747824
181	0x3e145822	0.14486745
182	0xbc2db945	-0.010603254
183	0x3df6d012	0.12051405
184	0x3cb1f3eb	0.021722754
185	0xbc37022b	-0.0111699505
186	0xbd55ca89	-0.052195106
187	0xbded1dd3	-0.11577954
188	0x3d299a4e	0.041406922
189	0x3d422f1b	0.047408205
190	0xbdad7a95	-0.08470646
191	0x3d2cf088	0.042221576

encoder.rnn.bias_hh_l0_reverse f4 [192]
0	0xbd16ea7e	-0.036844723
1	0xbd6e08ab	-0.058113735
2	0x3d86e6a0	0.06586957
3	0x3bd9756a	0.0066363113
4	0xbc3154f1	-0.010823474
5	0x3d763aa3	0.060114514
6	0xbe1eba13	-0.15500669
7	0xbe3aeab5	-0.18253596
8	0xbd8d4d7a	-0.06899543
9	0x3da13477	0.07871335
10	0xbd930bbf	-0.07179975
11	0xbd947438	-0.072487295
12	0x3e0cdef1	0.1375692
13	0xbd8c607b	-0.0685434
14	0xbd2f9046	-0.0428622
15	0xbc8b51b0	-0.017006725
16	0xbc69814a	-0.014252016
17	0xbd738b72	-0.059459157
18	0xbe90da77	-0.28291675
19	0x3d9d0f3a	0.0766892
20	0xbd3d3eda	-0.046202518
21	0xbd4acc1f	-0.04951107
22	0xbe14b9d2	-0.1452401
23	0xbdfbd733	-0.12296905
24	0x3d8d0671	0.06885994
25	0xbce1dad1	-0.02757016
26	0xbe307b65	-0.17234571
27	0x3e1b2ffa	0.1515502
28	0x3e0f9c16	0.14024386
29	0xbaae59a9	-0.0013301867
30	0xbd6260de	-0.05526816
31	0x3b731514	0.003709142
32	0x3d14e911	0.036355082
33	0xbdb71b97	-0.08940809
34	0x3cb3b2d8	0.021935865
35	0xbd850d07	-0.064966254
36	0x3db3d47b	0.08780762
37	0x3e1000ce	0.14062807
38	0x3cc67f00	0.02423048
39	0x3d6d3546	0.057912134
40	0x3e2d0815	0.16897614
41	0x3d0b53a4	0.034015313
42	0xbcc555a4	-0.024088688
43	0x3b8b2e50	0.0042474642
44	0xbd944cab	-0.07241186
45	0xbe534655	-0.20632298
46	0xbda3568c	-0.07975492
47	0xbe072202	-0.13196567
48	0xbcd56893	-0.026050841
49	0x3d161974	0.036645368
50	0xb8b01e1e	-8.397944e-05
51	0x3d2ff22b	0.04295556
52	0x3cbd2f2a	0.023093779
53	0x3c3c66fb	0.011499162
54	0xbbc2e178	-0.005947288
55	0x3c234455	0.009965022
56	0x3e3b0716	0.18264422
57	0xbd0d1e49	-0.03445271
58	0x3cc213ed	0.023691142
59	0xbd4beb36	-0.04978486
60	0x3ca7e2b9	0.020493852
61	0xbc1b4e56	-0.009479126
62	0x3df7f94f	0.12108099
63	0xbcc26636	-0.023730379
64	0xbe0521bb	-0.13001148
65	0xbd407ef0	-0.046996057
66	0xbde8c551	-0.1136576
67	0xbbd56e5c	-0.0065134
68	0xbce3d7d4	-0.027812876
69	0x3db5a4b0	0.08869302
70	0x3d89d834	0.067306906
71	0x3e7d6dad	0.24748869
72	0x3e33a92c	0.17545003
73	0x3d911662	0.07084347
74	0x3dc59cec	0.09649071
75	0xbe35bb4f	-0.17747234
76	0x3e630969	0.22171558
77	0x3d202b08	0.039103538
78	0x3de9e2f7	0.11420243
79	0xbcca02c5	-0.024659524
80	0x3e4f427c	0.20240206
81	0xbe670d12	-0.2256358
82	0xbe4e1bda	-0.20127812
83	0x3d9b5b1d	0.07585738
84	0x3c107b62	0.008818479
85	0x3d3430ac	0.04399173
86	0xbd849a17	-0.06474703
87	0x3e13cff6	0.144348
88	0x3d1949c2	0.037423857
89	0x3c17fbd2	0.009276347
90	0xbdd5a8b1	-0.10432566
91	0xbe14ba12	-0.14524105
92	0x3e291f07	0.16515742
93	0x3da40301	0.080083854
94	0x3dfdc79f	0.1239159
95	0x3db3d382	0.08780576
96	0x3d4867d7	0.048927154
97	0x3d2e2829	0.04251877
98	0x3c925931	0.017864795
99	0x3e15024c	0.14551657
100	0xbe220690	-0.15822816
101	0xbde3a4a5	-0.11115388
102	0x3d6be817	0.057594385
103	0x3c990425	0.018678734
104	0xbd929100	-0.07156563
105	0x3def23b1	0.116767295
106	0x3ca030d9	0.019554542
107	0x3d19718c	0.037461802
108	0x3dac9a35	0.0842785
109	0xbdb769f1	-0.089557536
110	0x3d260e8a	0.04054121
111	0xbe00fddd	-0.12596841
112	0x3d4ad118	0.049515814
113	0x3d9e1f6d	0.07720838
114	0xbdaa4fa9	-0.08315975
115	0xbd083229	-0.03325096
116	0xbd87131e	-0.06595443
117	0xbe30a0cd	-0.1724884
118	0x3d95deac	0.07317862
119	0xbdc78523	-0.09742191
120	0xbe1bc022	-0.15210012
121	0xbd221ef3	-0.039580297
122	0x3d9ae1c4	0.075625926
123	0x3dc63242	0.09677555
124	0xbe157989	-0.14597143
125	0xbda8ca5d	-0.08241723
126	0x3c254636	0.01008754
127	0x3b96abfd	0.0045981393
128	0xbd836d9f	-0.06417393
129	0xbd89f7c8	-0.06736714
130	0xbd111f20	-0.035430074
131	0x3d74b3fb	0.059741955
132	0x3e103ace	0.14084932
133	0x3d892328	0.06696159
134	0xbd9f4c14	-0.077781826
135	0x3dcfcadb	0.101461135
136	0xbd0599c2	-0.032617338
137	0xbda74182	-0.081667915
138	0xbda303d7	-0.07959717
139	0xbd5d18a1	-0.053978566
140	0xbdce2441	-0.10065509
141	0x3dbdbc3d	0.09264419
142	0x3ca6b016	0.020347636
143	0xbc9aa0b9	-0.018875467
144	0x3c4955a7	0.0122884875
145	0xbb9b3448	-0.004736457
146	0xbc3750af	-0.01118867
147	0x3df8965c	0.12138054
148	0xbb4805b2	-0.0030520973
149	0xbdec55b7	-0.11539786
150	0xbdb21653	-0.08695664
151	0x3dae3219	0.08505649
152	0xbc0e73d5	-0.008694609
153	0x3d1a02a8	0.03760019
154	0x3d580467	0.052738573
155	0xbc474764	-0.012163017
156	0xbc8812ac	-0.016610466
157	0x3d078eae	0.033095054
158	0xbd22b9aa	-0.039727844
159	0x3d7eb733	0.06218643
160	0x3e16b9fa	0.14719382
161	0xbe10838c	-0.14112681
162	0x3da2918a	0.079379156
163	0xbdfc1bba	-0.12309976
164	0x3d814e7e	0.06313799
165	0x3d343441	0.043995146
166	0xbb875761	-0.0041302894
167	0x3e221e38	0.1583184
168	0xbe0010b4	-0.12506372
169	0x3d7131b7	0.058885302
170	0x3daa50fa	0.08316226
171	0x3e046b2f	0.12931512
172	0xbcb7ed6b	-0.022452077
173	0xbdc5d3d9	-0.09659547
174	0x3ac704bc	0.0015183906
175	0x3dde85de	0.10865377
176	0x3dabb709	0.083845206
177	0xbc2d3dd7	-0.010573826
178	0xbcea8ac9	-0.028630631
179	0xbde1e8b3	-0.11030712
180	0x3c164072	0.009170638
181	0x3e1c4553	0.1526082
182	0x3cc05139	0.02347623
183	0xbd77393c	-0.060357317
184	0x3dfa9559	0.12235517
185	0xbcee3273	-0.02907679
186	0xbd947209	-0.07248313
187	0xbdc6b1cc	-0.09701881
188	0x3db41ed2	0.08794941
189	0xbd747d80	-0.05969
190	0x3d16b722	0.036795743
191	0xbd128011	-0.035766665
