team-09/src/elo_guesser.pt (torch, 180873 bytes, 14 tensors)

encoder.norm.weight f4 [20]
0	0x3f80ee02	1.0072634
1	0x3f7933f5	0.97344905
2	0x3f83ce97	1.0297421
3	0x3f854313	1.0411094
4	0x3f87677d	1.0578457
5	0x3f88eea5	1.0697829
6	0x3f8c0c3a	1.0941231
7	0x3f87a131	1.0596067
8	0x3f8ba7ba	1.0910561
9	0x3f85c3a5	1.0450331
10	0x3f8f141c	1.1178012
11	0x3f887cd6	1.0663097
12	0x3f97ef63	1.186993
13	0x3f9d6e24	1.2299237
14	0x3f8c0cd4	1.0941415
15	0x3f852d98	1.0404539
16	0x3f89ccaa	1.0765584
17	0x3f88a4d7	1.0675305
18	0x3f87cf38	1.0610113
19	0x3f8e40e5	1.1113554

encoder.norm.bias f4 [20]
0	0x3d598479	0.05310485
1	0xbd2ff88a	-0.042961635
2	0xbd149e96	-0.03628405
3	0x3d4014e0	0.046894908
4	0x3ca5f16e	0.020256724
5	0x3ca5045f	0.020143686
6	0xbb463427	-0.0030243488
7	0xbba7c235	-0.005119587
8	0xbbc90d6e	-0.006135634
9	0xbc7c8d86	-0.015414601
10	0xbc20fc5e	-0.009825794
11	0xbc9e7b57	-0.019345922
12	0x39825507	0.00024858883
13	0xbbfffa47	-0.007811818
14	0x3c877e9b	0.016539862
15	0xbbd794ff	-0.006579041
16	0x3bebfca8	0.00720175
17	0x3b4cd43d	0.0031254434
18	0xb9430a17	-0.00018600408
19	0x3bf2356a	0.0073916214

encoder.rnn.weight_ih_l0 f4 [192, 20]
0	0xbe51b42d	-0.20478888
1	0x3d9cbe13	0.07653441
2	0xbc678307	-0.01413036
3	0xbdae2f39	-0.08505101
4	0xbd8cc01d	-0.0687258
5	0xbdab2421	-0.083565004
6	0x3d96450c	0.073373884
7	0xbd032ccb	-0.03202514
8	0xbd200291	-0.039064948
9	0xbd844f39	-0.06460423
10	0x3dd352b1	0.103185065
11	0x3d662109	0.05618385
12	0x3d04001d	0.03222667
13	0x3e24d049	0.1609508
14	0xbd177ea2	-0.036986
15	0x3e08d98a	0.13364235
16	0x3dc442f7	0.09583085
17	0xbdf84a1d	-0.12123511
18	0xbdcb6e0a	-0.09933098
19	0x3d33b72b	0.043875854
20	0xbd8bf0ee	-0.06833063
21	0x3d2835c9	0.04106692
22	0x3e2ea248	0.17054093
23	0xbd26b2ca	-0.04069785
24	0x3e0e3fdd	0.1389155
25	0x3e093b47	0.13401519
26	0x3e073bed	0.13206454
27	0x3df6823f	0.12036561
28	0x3cf46ad1	0.02983609
29	0x3cb5c2b2	0.022187565
30	0x3c602d1f	0.013682633
31	0xbcfb2157	-0.030655546
32	0xbe8fe7b7	-0.28106472
33	0xbe501839	-0.2032174
34	0x3d94c85a	0.072647765
35	0xbdc7c1de	-0.09753774
36	0x3db3b2c7	0.087743334
37	0x3cbc4487	0.022981895
38	0xbdbef569	-0.09324152
39	0x3dd150a1	0.10220457
40	0x3dd26acb	0.102742754
41	0xbdace219	-0.08441562
42	0x3d99bfc3	0.07507279
43	0x3ce6e793	0.028186595
44	0xbdbe1807	-0.092819266
45	0xbdabac96	-0.083825275
46	0xbd37846d	-0.044804025
47	0xbdaf96d8	-0.08573693
48	0x3d1bbdaf	0.038022693
49	0xbe00d9ba	-0.12583056
50	0xbdc46eab	-0.09591421
51	0x3d78f307	0.060778644
52	0x3ddc9581	0.10770703
53	0x3d1fc27c	0.039003834
54	0x3d1ea03f	0.03872704
55	0xbc98694e	-0.0186049
56	0x3d2d3a17	0.042291727
57	0xbe075176	-0.13214669
58	0xbddf1dca	-0.10894354
59	0xbdbe998c	-0.093066305
60	0x3d48341d	0.048877824
61	0x3c480462	0.012208076
62	0xbd0c51af	-0.034257587
63	0xbcd4af95	-0.02596263
64	0xbdbca0ed	-0.09210382
65	0xbe3e28e6	-0.18570289
66	0xbe389970	-0.18027282
67	0xbe4ff4b8	-0.20308197
68	0xbe23c55c	-0.15993255
69	0xbd98f8ef	-0.07469355
70	0xbe33067c	-0.17482942
71	0xbe1b4661	-0.15163566
72	0x3ddd078e	0.107924566
73	0x3e05ba7a	0.13059416
74	0xbc2c0d59	-0.010501229
75	0xbc9bafa8	-0.019004658
76	0xbe121659	-0.14266337
77	0xbd0a86e5	-0.03382005
78	0xbcdcd713	-0.026958024
79	0xbe30fe88	-0.17284596
80	0xbdc175ac	-0.09446272
81	0x3d84ac51	0.06478179
82	0xbdcf9cb1	-0.101373084
83	0xbdc8bab0	-0.09801233
84	0x3d92b299	0.07162971
85	0xbdab4dbe	-0.083644375
86	0xbdd83f3d	-0.10558937
87	0x3bb080f3	0.0053864657
88	0x3d20ff69	0.039306078
89	0x3db7938d	0.0896369
90	0xbcd3a3a8	-0.025834873
91	0xbd8a3090	-0.06747544
92	0x3e559b70	0.20860076
93	0x3de52a01	0.11189652
94	0x3ddea79a	0.10871811
95	0xbd84a9ea	-0.06477721
96	0xbd2ce971	-0.042214815
97	0xbcd32b08	-0.025777355
98	0x3d54d9e5	0.051965613
99	0x3dc0a946	0.09407286
100	0xbd77f87d	-0.06053971
101	0xbdbe347b	-0.092873536
102	0x3cd92b2b	0.026509842
103	0x3b23b3c3	0.0024978973
104	0xbd2551b3	-0.040361118
105	0xbe35e6cf	-0.17763828
106	0x3d87a225	0.066227235
107	0x3c533ed8	0.012893401
108	0x3d6fb77d	0.058524597
109	0x3cf21e75	0.029555539
110	0x3d2e25f4	0.042516664
111	0xbd7193fc	-0.05897902
112	0x3cc894aa	0.024484951
113	0x3d3c4ff4	0.045974687
114	0x3c9dccc3	0.019262677
115	0xbd9f6b8a	-0.07784183
116	0xbdbda0f5	-0.09259216
117	0x3c31843b	0.010834749
118	0xbad0c3ba	-0.0015927472
119	0x3c19f230	0.009396121
120	0x3d4b21cc	0.049592778
121	0xbd6219f8	-0.055200547
122	0x3d720ebd	0.059096087
123	0x3e006ef1	0.12542321
124	0xbcfe4271	-0.031037541
125	0x3d7fe163	0.062470805
126	0xbe08463b	-0.13308041
127	0xbe0267a7	-0.12734853
128	0xbe0a13b5	-0.1348408
129	0xbe18510e	-0.1487467
130	0x3da957cb	0.08268698
131	0xbe080716	-0.13283953
132	0x3e074bc0	0.1321249
133	0x3e034d98	0.12822568
134	0x3d2a54ac	0.041584656
135	0xbdb29075	-0.08718959
136	0xbe1e840e	-0.15480062
137	0x3d7dd55f	0.061971065
138	0xbde858b8	-0.11345047
139	0x3c03fb88	0.008055575
140	0xbdd4f70e	-0.103986844
141	0xbe3ab9fa	-0.18235007
142	0xbd854fdf	-0.06509375
143	0x3d109b68	0.035304457
144	0x3d9ba538	0.07599872
145	0x3e878aba	0.26473027
146	0x3d8130cf	0.063081376
147	0x3e812f75	0.2523152
148	0x3e90b229	0.28260925
149	0x3e917fcb	0.2841781
150	0x3e47c80d	0.19509907
151	0x3e1adecb	0.15124051
152	0x3d0fe52b	0.03513066
153	0x3dc7aa38	0.097492635
154	0x3e0f48c0	0.13992596
155	0x3dd0b6b2	0.10191096
156	0x3e2503d3	0.1611474
157	0x3d0e152c	0.03468816
158	0x3e1e96ff	0.15487288
159	0x3d8adddc	0.067805976
160	0xbe07cc11	-0.13261439
161	0xbe02d557	-0.12776695
162	0x3da952eb	0.082677685
163	0x3dc1e85d	0.09468148
164	0x3e6671d9	0.22504367
165	0x3df5b59b	0.11997529
166	0x3e113b3a	0.1418275
167	0x3e6d62c1	0.23182203
168	0x3e01721d	0.12641187
169	0x3d936ba2	0.07198264
170	0x3e40b836	0.18820271
171	0x3de8c82b	0.11366304
172	0xbe2ea8f9	-0.17056645
173	0xbe2c376c	-0.16818017
174	0x3d1aafb1	0.03776521
175	0x3e81ec7a	0.2537573
176	0x3e0d1775	0.1377848
177	0x3d083b83	0.03325988
178	0x3e068adc	0.13138908
179	0x3e344f90	0.17608476
180	0xbe0127f0	-0.12612891
181	0xbd6b5663	-0.05745543
182	0xbc8f79d8	-0.017514154
183	0x3d241e99	0.040068243
184	0xbdaa048f	-0.08301651
185	0xbe43abbf	-0.19108485
186	0xbce5fa5d	-0.028073484
187	0xbdf7e567	-0.12104302
188	0xbd473a33	-0.048639487
189	0xbdc869bb	-0.097857915
190	0xbe538db8	-0.2065953
191	0xbe1997dc	-0.14999336
192	0x3e1e4fa5	0.1546007
193	0x3e9213c7	0.28530714
194	0xbdc088a1	-0.0940106
195	0xbe114595	-0.141867
196	0xbe32709d	-0.17425771
197	0xbdc71bd2	-0.09722103
198	0xbe572bc3	-0.21012788
199	0xbd7d306b	-0.061813753
200	0x3d3942c1	0.045229677
201	0x3d541c7a	0.05178497
202	0xbd02aae1	-0.031901244
203	0x3c8f425f	0.017487703
204	0xbde8491d	-0.1134207
205	0xbdc7eec3	-0.09762337
206	0xbc89ae07	-0.016806616
207	0xbdd4d72a	-0.10392602
208	0xbca1569f	-0.019694624
209	0xbe1c2604	-0.15248877
210	0xbad6fc8a	-0.0016402167
211	0xbe12f47d	-0.14351077
212	0x3db7ab03	0.08968165
213	0xbd0fce44	-0.03510882
214	0x3c0a68dc	0.008447852
215	0xbd435039	-0.04768393
216	0xbcca259c	-0.024676137
217	0xbd2811a0	-0.041032434
218	0xbdb87b26	-0.09007864
219	0xbdd55182	-0.10415937
220	0xbe2878cf	-0.16452335
221	0xbbdd2c62	-0.0067496756
222	0x3de86896	0.11348073
223	0x3df283cd	0.11841545
224	0x3d3bd40a	0.045856513
225	0x3dc5fa97	0.09666937
226	0x3b23b918	0.002498215
227	0x3d6ea5a5	0.05826344
228	0x3df7523a	0.1207623
229	0x3e0cadaa	0.13738123
230	0x3d75edc7	0.060041215
231	0x3e0cdccc	0.13756102
232	0xbc17fc34	-0.0092764385
233	0xbdca8c74	-0.098900706
234	0x3e31a338	0.1734742
235	0x3c71fba2	0.014769467
236	0x3c9519e7	0.018200828
237	0x3e3c4926	0.18387279
238	0x3dcd1c8e	0.10015212
239	0x3e5e02e3	0.21680789
240	0xbd9d7a66	-0.07689361
241	0xbe059043	-0.13043313
242	0x3d28de4b	0.04122762
243	0x3d00a8e1	0.031411055
244	0xbc7d216a	-0.015449861
245	0xbdcc91bb	-0.099887334
246	0xbc9f5066	-0.019447517
247	0xbe4a3208	-0.19745648
248	0xbd659af3	-0.056055974
249	0x3b6287fd	0.0034565919
250	0xbe0005f4	-0.12502271
251	0x3bd8547e	0.006601869
252	0x3e7162fe	0.23572919
253	0x3ea4a9a7	0.32160684
254	0xbd41f22d	-0.047350097
255	0xbde1b191	-0.11020196

encoder.rnn.weight_hh_l0 f4 [192, 64]
0	0xbcb7c249	-0.02243151
1	0x3e067b3f	0.13132952
2	0x3e0f9c73	0.14024524
3	0x3de395f1	0.111125834
4	0xbde5e960	-0.112261534
5	0xbc3fcc70	-0.011706457
6	0x3d8fba3a	0.07017942
7	0x3d839859	0.064255424
8	0x3c88ad8a	0.016684312
9	0x3db4fb85	0.08837036
10	0x3c41a933	0.011820125
11	0x3c837b1e	0.016049918
12	0xbdfecd25	-0.12441472
13	0x3d08e968	0.03342572
14	0xbd60f2a2	-0.054918893
15	0xbd035e71	-0.03207249
16	0xbc0f6007	-0.008750922
17	0x3da4e33d	0.08051155
18	0x3dcc1669	0.09965212
19	0xbdafaa32	-0.08577384
20	0x3d4442fd	0.047915448
21	0xbe30987d	-0.1724567
22	0xbe00a1d2	-0.1256173
23	0x3d8036bd	0.062604405
24	0xbd8a73e3	-0.06760385
25	0xbd110201	-0.0354023
26	0x3d8cfb23	0.06883838
27	0xbd9d9216	-0.07693879
28	0x3c3dd9c9	0.011587569
29	0x3db2d7da	0.08732577
30	0xbd2ba86b	-0.041908663
31	0xbdf6f500	-0.12058449
32	0x3d028e66	0.031874083
33	0x3df57bfa	0.11986537
34	0x3be29f85	0.006915989
35	0x3d4262d3	0.047457527
36	0xbd316ff4	-0.043319657
37	0xbda4fb2d	-0.080557205
38	0x3e1cd26f	0.15314649
39	0x3c01e2fc	0.007927652
40	0x3cc613c7	0.024179352
41	0x3da1e005	0.079040565
42	0xbda58687	-0.080823
43	0x3c877d59	0.016539263
44	0xbcd2dbc3	-0.025739556
45	0xbdcd2e8b	-0.10018643
46	0xbe0038ba	-0.1252164
47	0xbc3c54c8	-0.011494823
48	0x3d44eea6	0.048079155
49	0xbd7cf86e	-0.06176036
50	0xbc92a4bc	-0.017900817
51	0x3cd1ac08	0.025594726
52	0x3d4dc149	0.05023316
53	0x3deca9b4	0.11555806
54	0x3d9beeba	0.07613893
55	0xbe0423f7	-0.12904344
56	0x3d025366	0.031817816
57	0xbdbf805b	-0.09350654
58	0xbd686ed8	-0.056746334
59	0xbe21dac2	-0.15806106
60	0x3db436a3	0.087994836
61	0x3e10ac8d	0.14128323
62	0xbce55df8	-0.02799891
63	0xbdf5ae8f	-0.11996185
64	0xbe11a29b	-0.14222185
65	0xbdcdaa0f	-0.10042202
66	0xbe282c51	-0.16423155
67	0xbcbebe78	-0.023284182
68	0xbcfe80c8	-0.031067267
69	0x3e3741ec	0.17896241
70	0x3d8dd602	0.069255844
71	0x3d7229a9	0.05912176
72	0x3d2620d7	0.040558662
73	0x3e2b3f74	0.16723424
74	0x3d59d5b5	0.053182323
75	0x3ddd6df0	0.108119845
76	0xbb7dbf33	-0.00387187
77	0x3d40acde	0.04703986
78	0x3d6f3e96	0.058409296
79	0x3dc78b9d	0.09743426
80	0xbe89a781	-0.26885608
81	0x3d8150a2	0.063142076
82	0xbe72ccb0	-0.23710895
83	0xbe523742	-0.20528892
84	0xbe909c2d	-0.28244153
85	0xbd928ac5	-0.071553744
86	0x3df5485b	0.11976691
87	0x3e8033f7	0.25039646
88	0x3d7060e3	0.05868615
89	0xbc2169bb	-0.009851868
90	0x3e6474df	0.22310208
91	0xbe52a5b2	-0.2057102
92	0x3dc8749a	0.09787865
93	0x3e64fb0d	0.22361393
94	0x3cdaaf4e	0.02669492
95	0x3daf47a3	0.085585855
96	0xbd55376f	-0.05205482
97	0xbd8d8682	-0.06910421
98	0xbd10916a	-0.035294928
99	0xbd505af2	-0.050867982
100	0xbce51e6f	-0.027968613
101	0xbe6df300	-0.23237228
102	0xbe0ad9ed	-0.13559695
103	0xbe0fac01	-0.14030458
104	0x3e4cd387	0.20002566
105	0xbc13be38	-0.00901752
106	0xbe3db32a	-0.18525377
107	0x3d6171e8	0.05504027
108	0x3e598464	0.2124191
109	0xbd1b34ab	-0.037892025
110	0x3e8653f8	0.26235938
111	0xbd5e121a	-0.05421648
112	0x3d88a1c6	0.06671481
113	0x3e064216	0.13111147
114	0x3e47673c	0.19472975
115	0xbdd247b5	-0.10267583
116	0x3e054370	0.13014007
117	0x3d84679b	0.06465074
118	0xbdfc1719	-0.12309093
119	0x3d3b0cef	0.04566663
120	0xbdbe6f3f	-0.09298562
121	0xbdd186da	-0.10230799
122	0x3e3f29bc	0.18668264
123	0xbdf91850	-0.1216284
124	0x3c14347a	0.0090457145
125	0xbe0a7326	-0.13520488
126	0x3e081bc2	0.13291839
127	0xbcde918a	-0.027169008
128	0x3d98603d	0.07440231
129	0x3d8a4cf4	0.06752959
130	0x3e35c173	0.17749576
131	0x3dc39d07	0.09551435
132	0x3e13b3de	0.14424083
133	0x3d6c81a3	0.05774082
134	0x3d69c321	0.057070855
135	0xbd9146dd	-0.07093594
136	0xbdb35bd6	-0.08757751
137	0x3d805e0d	0.06267939
138	0xbda5561c	-0.08073065
139	0xbc63021f	-0.013855486
140	0xbdcd2eb2	-0.10018672
141	0x3d602a06	0.054727577
142	0xbc420831	-0.011842773
143	0xbe0cc70b	-0.13747804
144	0xbd8ec46e	-0.0697106
145	0xbdb7215b	-0.08941909
146	0xbd53c785	-0.05170395
147	0x3d4f5b95	0.05062445
148	0x3d8ebb63	0.06969335
149	0x3d24c62e	0.04022806
150	0x3d10b0bf	0.03532481
151	0xbe14e1ef	-0.14539312
152	0x3c811e48	0.01576151
153	0xbdaeffa9	-0.08544857
154	0x3db56487	0.08857065
155	0xbbd71e9f	-0.0065649296
156	0x3d1c2509	0.038121257
157	0x3c2fccc6	0.010729974
158	0xbd4feb20	-0.050761342
159	0xbe12fc4e	-0.14354059
160	0xbd1ce469	-0.038303766
161	0x3e07a786	0.13247499
162	0xbd8b0e3c	-0.06789824
163	0x3e0d7527	0.13814221
164	0xbe09678d	-0.13418408
165	0xbd9c66d6	-0.07636802
166	0x3dbc4555	0.091929115
167	0x3e2e5026	0.17022762
168	0xbd2290b0	-0.039688766
169	0xbc9dd6c0	-0.01926744
170	0x3d841324	0.06448963
171	0x3e0db907	0.13840114
172	0xbdf125fe	-0.117748246
173	0x3dde5e31	0.10857809
174	0xbe574f39	-0.21026315
175	0xbd883244	-0.066502124
176	0xbd5e04aa	-0.054203667
177	0x3dca761b	0.09885808
178	0xbc6aeae8	-0.014338233
179	0x3dc98416	0.098396465
180	0xbd0c4895	-0.034248907
181	0xbc28b7e2	-0.010297747
182	0x3c47f0d0	0.01220341
183	0x3dbca6db	0.09211513
184	0x3cdd17f0	0.026988953
185	0x3dd7facd	0.10545883
186	0xb9b618f1	-0.00034732328
187	0xbc3d4327	-0.011551655
188	0x3d7fc3ba	0.06244252
189	0x3e485c18	0.19566381
190	0x3d9e5134	0.07730332
191	0xbd5a83ea	-0.05334846
192	0x3cab5a33	0.020917034
193	0xbd37d13d	-0.04487728
194	0x3dae0ba5	0.08498315
195	0xbe0d0495	-0.13771279
196	0xbb23ea72	-0.0025011566
197	0xbd967398	-0.073462665
198	0xbd9d15d5	-0.0767018
199	0xbe2be9be	-0.16788384
200	0xbe571002	-0.210022
201	0xbd9a0de0	-0.07522178
202	0xbdd0e411	-0.1019975
203	0xbd209a15	-0.039209444
204	0xbd876f3b	-0.066130124
205	0x3d32be65	0.043638606
206	0x3dfda4a4	0.12384918
207	0xbd0cd0a5	-0.034378666
208	0x3d3d1b28	0.046168476
209	0x3da23a4a	0.07921274
210	0xbb2ac775	-0.0026058827
211	0x3d07a8bc	0.033119902
212	0xbccdaf47	-0.025107993
213	0x3dfb074a	0.1225725
214	0x3dd47676	0.10374157
215	0x3d18e2da	0.037325718
216	0x3d30f5b7	0.043203082
217	0xbcf18682	-0.029483084
218	0x3d1b23cd	0.03787594
219	0x3cf8e199	0.03038101
220	0xbc96cb8b	-0.018407604
221	0x3d892ca9	0.066979714
222	0xbda47ee9	-0.08032019
223	0xbe0587cc	-0.13040084
224	0x3cf9e5d9	0.030505108
225	0xbd22512a	-0.039628185
226	0x3cd5dda5	0.026106665
227	0xbdc492ce	-0.09598313
228	0x3b39bf96	0.0028342954
229	0xbbe6e868	-0.007046748
230	0xbe0e3d76	-0.13890633
231	0x3a2d6ead	0.0006615918
232	0x3c876258	0.016526386
233	0xbcacb9ef	-0.021084754
234	0x3daa886b	0.08326801
235	0x3e408221	0.1879964
236	0x3d43c326	0.04779353
237	0x3db6e049	0.08929498
238	0xbcb5a976	-0.022175532
239	0x3e06a142	0.13147452
240	0xbca88baf	-0.020574419
241	0x3d893e5c	0.06701347
242	0x3cc12d05	0.023581037
243	0x3d6110de	0.054947726
244	0xbdd0993f	-0.101854794
245	0xbd45ce94	-0.04829271
246	0xbd3fdee4	-0.046843424
247	0xbd7aede6	-0.061262034
248	0x3d3878e7	0.045037176
249	0xbc9f1819	-0.01942067
250	0xbd66ae4b	-0.056318562
251	0xbdc315a4	-0.09525612
252	0xbd00f343	-0.031481992
253	0x3c0b5687	0.008504516
254	0x3ac4b668	0.0015007975
255	0x3ded3099	0.11581535

encoder.rnn.bias_ih_l0 f4 [192]
0	0xbd656942	-0.056008585
1	0xbe3b55ae	-0.18294403
2	0x3d5826c4	0.052771345
3	0x3cf84bd5	0.030309597
4	0xbe256100	-0.16150284
5	0x3de35982	0.11101057
6	0xbbb9d263	-0.005670832
7	0x3df15760	0.117842436
8	0x3dc9a2a2	0.09845473
9	0x3d98b37d	0.0745611
10	0xbda7a62e	-0.08185993
11	0xbc9bc2af	-0.01901373
12	0xbe025f89	-0.12731756
13	0x3df7a8b8	0.120927274
14	0xbdb5cd84	-0.088770896
15	0x3deda241	0.11603213
16	0xbddb3e9f	-0.107053034
17	0x3d9fa329	0.07794792
18	0xbe1066cd	-0.14101715
19	0x3d09e64b	0.03366689
20	0xbe20fbd8	-0.15721071
21	0xbd6e4b52	-0.0581773
22	0x3c722025	0.014778172
23	0xbdb39706	-0.0876904
24	0xbd1d93c4	-0.038471
25	0xbdf71804	-0.120651275
26	0x3de7c734	0.11317292
27	0xbe0a90d5	-0.13531812
28	0x3cc86a75	0.024464825
29	0x3dd95917	0.10612696
30	0xbe201810	-0.15634179
31	0x3d8d062d	0.068859436
32	0x3d9e4dba	0.07729669
33	0x3da2e305	0.07953457
34	0x3ca20781	0.019778969
35	0xbce89db8	-0.028395519
36	0x3daa40a6	0.08313112
37	0xbe037e5a	-0.12841168
38	0x3d378d9b	0.04481278
39	0xbd5c0855	-0.053718884
40	0xbe046296	-0.12928233
41	0xbe04d4dc	-0.12971824
42	0xbd890fdb	-0.06692477
43	0xbceee2cc	-0.02916088
44	0x3dd77d47	0.10521942
45	0xbd9ad6ff	-0.075605385
46	0xbdee7f95	-0.11645428
47	0xbde378d5	-0.11107031
48	0x3daf610e	0.085634336
49	0xbd6f3d48	-0.05840805
50	0xb8f371c0	-0.000116083305
51	0x3daf4381	0.08557797
52	0x3d3d4d27	0.046216156
53	0x3c0215d3	0.007939774
54	0x3d28f92b	0.04125325
55	0x3ded6b48	0.11592728
56	0xbdfc89c0	-0.12330961
57	0xbbb927bf	-0.00565049
58	0x3db32550	0.08747351
59	0x3e0dc01b	0.13842814
60	0xbdf522a0	-0.11969495
61	0xbdcbcaef	-0.09950816
62	0x3ded03a3	0.11572959
63	0xbd8e8ed9	-0.0696084
64	0x3d8eadf3	0.06966772
65	0x3cba6539	0.022753345
66	0xbb5b8361	-0.0033495056
67	0x3cfe77df	0.031063018
68	0x3d94dc58	0.0726859
69	0x3d42f76d	0.047599245
70	0x3dd09359	0.10184354
71	0x3d87d816	0.06633012
72	0xbde32c56	-0.11092441
73	0x3e27d869	0.16391148
74	0x3cdd39e0	0.027005136
75	0xbcf72fcb	-0.030174157
76	0x3d9011b9	0.0703463
77	0xbdaf1447	-0.085487895
78	0x3e0ca9a1	0.13736583
79	0x3def1c41	0.11675311
80	0xbe302ca4	-0.17204529
81	0x3d2985c5	0.04138734
82	0xbd41a98c	-0.047280833
83	0x3e7bd411	0.24592616
84	0x3e3b769c	0.18306965
85	0xbd8e82c0	-0.06958532
86	0x3e45a107	0.19299708
87	0x3e78c03c	0.24292082
88	0x3e6fdd2e	0.23424217
89	0x3dd70678	0.10499281
90	0xbdc542ec	-0.09631905
91	0x3e5201f2	0.20508555
92	0x3e70d55d	0.23518892
93	0x3e22614f	0.15857433
94	0x3e6a3ba3	0.22874312
95	0x3e96bf5e	0.29442877
96	0x3e6981ac	0.22803372
97	0x3e280efd	0.16411968
98	0xbd1a7b14	-0.037715033
99	0x3e3b1892	0.18271092
100	0x3e26d441	0.16291906
101	0x3d2b4639	0.041815016
102	0x3e090006	0.13378915
103	0x3e229764	0.15878063
104	0x3e650c75	0.22368033
105	0x3e8af81a	0.2714241
106	0x3e807133	0.25086364
107	0x3d41dba1	0.047328595
108	0x3e1b387b	0.15158264
109	0x3e1b267a	0.15151396
110	0x3e454b12	0.19266918
111	0x3d94814c	0.07251224
112	0x3e15cbe6	0.14628562
113	0xbdce71e6	-0.10080318
114	0x3e6cc563	0.23122172
115	0x3ce1d898	0.0275691
116	0x3decdc73	0.11565485
117	0x3de04b7a	0.10951896
118	0x3dc851ed	0.09781251
119	0x3e3da87e	0.18521306
120	0x3be93642	0.0071170637
121	0x3e024e28	0.12725127
122	0x3e882249	0.26588657
123	0x3e81fce1	0.25388244
124	0x3e6a0d6a	0.2285668
125	0x3d402551	0.046910588
126	0x3df64681	0.12025166
127	0x3e628e1a	0.2212452
128	0x3deef11b	0.11667081
129	0xbcf2afea	-0.029624898
130	0x3ded62ca	0.11591108
131	0x3d29456e	0.04132598
132	0x3dbc6074	0.091980845
133	0x3d902e66	0.070401
134	0x3d90cadf	0.070699446
135	0xbe0eb222	-0.1393514
136	0xbd6d0a41	-0.057871107
137	0x3da38cbd	0.07985828
138	0xbd286905	-0.04111578
139	0xbd824656	-0.06361072
140	0xbdf3299e	-0.11873172
141	0xbc99573a	-0.01871835
142	0xbe18c68c	-0.1491949
143	0x3d0ad682	0.033895977
144	0x3dfe569b	0.124188624
145	0xbdc00f47	-0.09377914
146	0x3d888655	0.06666247
147	0xbdebaa37	-0.11507075
148	0x3d387eb6	0.045042716
149	0xbc9c523c	-0.019082181
150	0x3d2a2713	0.04154117
151	0xbd552553	-0.05203755
152	0xbd856ee5	-0.06515292
153	0x3db4e02e	0.088318214
154	0xbd848662	-0.06470944
155	0xbdb8e456	-0.090279266
156	0x3cfddaaa	0.030988056
157	0x3dafc431	0.085823424
158	0xbd73c122	-0.059510358
159	0xbdc524c2	-0.096261516
160	0x3e3d9ad3	0.18516092
161	0xbd9fd25f	-0.07803797
162	0x3ca8900e	0.020576503
163	0x3c4dfa64	0.012571905
164	0x3dc243e6	0.09485607
165	0x3e159b79	0.1461009
166	0x3dbae824	0.091263086
167	0x3dcd61f0	0.10028446
168	0x3bbc8506	0.0057531623
169	0x3de4cfee	0.11172472
170	0x3dcca1fe	0.09991835
171	0x3d168889	0.036751304
172	0xbde4fbf5	-0.111808695
173	0x3d8b9712	0.06815924
174	0x3d002d60	0.031293273
175	0x3d70d5f5	0.058797795
176	0xbdf6a139	-0.120424695
177	0xbdee3f6a	-0.11633189
178	0xbd7b78ab	-0.061394375
179	0xbdd749c6	-0.10512118
180	0x3e07a8f7	0.13248049
181	0xbd0d943d	-0.0345652
182	0xbd18e210	-0.037324965
183	0x3c8feb37	0.017568214
184	0x3d789ab5	0.060694415
185	0x3d77ee53	0.060530018
186	0xbd696c71	-0.056988183
187	0xbdc06008	-0.093933165
188	0x3d889db3	0.06670704
189	0xbe0a4a71	-0.1350496
190	0x3d1cc825	0.03827681
191	0x3ce64e05	0.028113374

encoder.rnn.bias_hh_l0 f4 [192]
0	0xbe06350a	-0.1310617
1	0xbc6766d4	-0.014123637
2	0xbd96effa	-0.07369991
3	0xbdba2152	-0.090883866
4	0x3d993665	0.07481078
5	0xbd775044	-0.06037928
6	0x3daf274b	0.085524164
7	0xbc5631c7	-0.013073391
8	0xbd4826c4	-0.048865095
9	0xbc854651	-0.016268881
10	0xbd3556de	-0.044272296
11	0x3dce3eed	0.10070596
12	0x3ccf7df2	0.02532861
13	0x3d818062	0.06323315
14	0xbde3c9fd	-0.111225106
15	0xbced62ba	-0.02897774
16	0xbc81b529	-0.015833454
17	0x3db8cc51	0.09023345
18	0x3d5ac046	0.053406022
19	0xbd8977fc	-0.06712338
20	0x3d1e623d	0.038667906
21	0xbd78a7c9	-0.060706887
22	0xbe12ced6	-0.14336714
23	0x3d916ee5	0.071012296
24	0x3cec83cf	0.028871445
25	0xbdd371bd	-0.10324428
26	0x3d4de8f0	0.050270975
27	0xbdd80db8	-0.10549492
28	0x3e0f41f8	0.13990009
29	0xbd5aa80a	-0.05338291
30	0xbd55de2d	-0.052213836
31	0x3d37ed5e	0.044904105
32	0xbdc27685	-0.09495262
33	0x3ddb0dca	0.106959894
34	0xbd83b8ed	-0.06431756
35	0x3d75195f	0.05983865
36	0xbd312e6a	-0.043257155
37	0x3caad7ae	0.020854797
38	0xbdee1b53	-0.116263054
39	0x3d90a7d0	0.07063258
40	0xbe2018d7	-0.15634476
41	0xbd7655f5	-0.06014057
42	0x3c34dccd	0.011038971
43	0x3e0f027b	0.1396579
44	0xbdc27ed4	-0.09496847
45	0x3d66ba02	0.056329735
46	0xbe45aed3	-0.19304971
47	0xbd6a5ad3	-0.057215523
48	0xbc8066c8	-0.01567401
49	0xbd801119	-0.06253261
50	0x3e00584f	0.12533687
51	0xbc14247f	-0.0090419045
52	0xbdbbe97c	-0.09175393
53	0xbdebed8b	-0.11519917
54	0x3cba2699	0.022723483
55	0xba88bf1c	-0.0010432932
56	0xbc1305bb	-0.008973534
57	0x3cceceb6	0.025245052
58	0x3d5f7ce6	0.05456247
59	0xbcb6b72a	-0.022304136
60	0xbda80d44	-0.08205655
61	0xbe687f11	-0.22704722
62	0x3c14fa10	0.009092823
63	0xbc9ee43d	-0.019395942
64	0x3d8b283d	0.06794784
65	0x3e237edb	0.1596636
66	0x3e031251	0.12799956
67	0xbda26571	-0.07929505
68	0x3e6c5725	0.23080118
69	0x3e7bfba9	0.2460772
70	0x3cebe306	0.028794777
71	0x3c2b3cf8	0.010451548
72	0xbde50134	-0.1118187
73	0x3e8581eb	0.26075682
74	0x3d3908f0	0.04517454
75	0x3d377ec0	0.044798613
76	0xbb3c50b7	-0.0028734633
77	0xbdca55ae	-0.09879623
78	0x3e7b6f33	0.24554138
79	0x3e3b6883	0.18301587
80	0xbe0df568	-0.13863146
81	0x3e1e1af9	0.15439977
82	0xbb247e8a	-0.0025099837
83	0x3e8e166f	0.2775149
84	0x3dda3409	0.10654456
85	0x3dea127d	0.114293076
86	0x3dfced13	0.12349906
87	0x3e07329d	0.13202901
88	0x3e051983	0.12998013
89	0x3e59f095	0.21283181
90	0xbdd59658	-0.104290664
91	0x3d140148	0.036134034
92	0x3e87caff	0.2652206
93	0x3dcfb031	0.10141028
94	0x3e4d5358	0.20051324
95	0x3e563c2f	0.20921396
96	0x3acb7da5	0.0015525116
97	0x3cb74133	0.022369957
98	0x3d0330df	0.03202903
99	0x3dcda00c	0.10040292
100	0x3e35938d	0.17732067
101	0xbda8d134	-0.08243027
102	0x3dfb1bcb	0.122611605
103	0x3e94b460	0.29043865
104	0x3e09a615	0.13442262
105	0x3def3019	0.11679096
106	0x3d5661a3	0.052339207
107	0xbce7b997	-0.028286738
108	0x3d92394a	0.07139833
109	0x3e0589c9	0.13040842
110	0x3db660b4	0.089051634
111	0x3e2400d2	0.16015938
112	0x3e44928a	0.19196525
113	0xbde4fc9d	-0.11180995
114	0x3ddc3de9	0.10753996
115	0x3db1de99	0.08685035
116	0x3db8ff0c	0.09033021
117	0xbd660d35	-0.05616494
118	0x3dd896cf	0.105756395
119	0x3d4fcb5e	0.050731055
120	0x3d81f919	0.0634634
121	0x3e5ea097	0.21740948
122	0x3ddaff7f	0.10693263
123	0x3e5b7ce4	0.2143436
124	0x3dda26dd	0.10651944
125	0x3e04328f	0.12909912
126	0xbc2cd8ca	-0.010549733
127	0x3da98efb	0.082792245
128	0x3d2c4ac0	0.042063475
129	0x3dc5d0bf	0.09658956
130	0x3e0552e5	0.13019903
131	0xbe0454a6	-0.12922916
132	0xbdcdf944	-0.10057309
133	0xbdb6dcbb	-0.0892882
134	0xbc48739d	-0.012234596
135	0x3d586f75	0.05284067
136	0x3b664db5	0.0035141532
137	0xbc034e2f	-0.008014246
138	0xbdba81e9	-0.0910681
139	0x3c5c9405	0.013463025
140	0xbce990f5	-0.028511504
141	0x3caab582	0.020838503
142	0x3d95e92a	0.07319863
143	0x3df468e4	0.11934069
144	0x3d85775d	0.06516907
145	0xbdf0c1f1	-0.117557414
146	0x3dd6c565	0.10486869
147	0xbd9978a5	-0.07493714
148	0xbd137f6a	-0.036010183
149	0x3d6c7709	0.05773071
150	0xbdbe806f	-0.093018405
151	0xbe0e4c0d	-0.13896199
152	0xbc9e3091	-0.019310268
153	0x3cbf35e5	0.023341129
154	0x3c279686	0.010228759
155	0xbdb901ac	-0.09033522
156	0xbdbb6b2a	-0.09151299
157	0xbdbe134f	-0.092810266
158	0xbd82a652	-0.06379379
159	0x3d264228	0.040590435
160	0x3e318a0b	0.17337815
161	0x3db1116e	0.086459026
162	0xbd857176	-0.065157816
163	0xbd3ff4f1	-0.046864454
164	0xbd993341	-0.07480479
165	0x3cff96ff	0.03119993
166	0x3d91174b	0.07084521
167	0x3909bab9	0.00013134898
168	0xbd7e3f8c	-0.06207232
169	0xbd47a631	-0.048742477
170	0x3d32a709	0.04361633
171	0x3d33bd1b	0.043881517
172	0xbb325cb8	-0.002721591
173	0xbb16efd2	-0.0023031128
174	0xbd921e8f	-0.07134735
175	0x3d418d51	0.04725391
176	0x3dabb11f	0.083833925
177	0xbd89f3ca	-0.06735952
178	0xbd943504	-0.072366744
179	0x3de20b6b	0.11037334
180	0x3d9e230d	0.07721529
181	0xbd9ee035	-0.07757608
182	0xbcd162d0	-0.025559813
183	0xbd0affb7	-0.033935275
184	0xbcdc9061	-0.026924314
185	0x3b90bad7	0.0044168043
186	0x3dcdf84e	0.10057126
187	0x3d6c7419	0.057727907
188	0x3d8ae531	0.06781996
189	0xbcff4a38	-0.03116332
190	0xbd908680	-0.07056904
191	0xbdc64ff0	-0.096832156

encoder.rnn.weight_ih_l0_reverse f4 [192, 20]
0	0x3e1c41af	0.15259431
1	0xba7b02f3	-0.00095753296
2	0x3d0a37a7	0.03374448
3	0xbdaf432e	-0.085577354
4	0xbd85667f	-0.0651369
5	0xbe2c8f29	-0.16851486
6	0x3d234493	0.03986032
7	0xbdd4e227	-0.10394698
8	0x3cbfa6a3	0.023394888
9	0x3d4edb3a	0.05050204
10	0xbe2c3991	-0.16818835
11	0xbe07daed	-0.13267107
12	0x3d8517cc	0.064986795
13	0x3d9986eb	0.07496437
14	0xbe439511	-0.19099833
15	0xbc2ab29b	-0.010418559
16	0xbe394cc1	-0.18095686
17	0x3a2976f5	0.00064645644
18	0xbc96a083	-0.018387085
19	0xbdbdf890	-0.09275925
20	0xbde040b1	-0.10949839
21	0xbdbd02f0	-0.09229076
22	0x3d0c8af8	0.03431222
23	0xbd22a0e4	-0.03970422
24	0x3d6e34b2	0.058155723
25	0x3e403e48	0.18773758
26	0x3c6c021b	0.014404799
27	0x3e294b68	0.16532671
28	0x3d6bf5a1	0.057607297
29	0xbcba21cc	-0.022721194
30	0x3cc12915	0.02357916
31	0x3dbc56f4	0.091962725
32	0xbdd43dda	-0.1036336
33	0xbe203f8a	-0.15649238
34	0x3c47331f	0.012158184
35	0x3d0d1a08	0.034448653
36	0xbcab207d	-0.020889515
37	0x3e5b89c3	0.2143927
38	0x3d81fa09	0.063465185
39	0x3d64be37	0.055845466
40	0xbe4b0877	-0.19827448
41	0xbe65154b	-0.22371404
42	0xbdda9a58	-0.1067397
43	0x3dd9db06	0.106374785
44	0x3de0a798	0.10969466
45	0x3e604eb2	0.2190502
46	0x3e17f36b	0.1483895
47	0x3e21f428	0.15815794
48	0x3e4acd92	0.19804981
49	0xbd0b05fd	-0.033941258
50	0x3e691075	0.22760184
51	0x3d2154e3	0.039387595
52	0x3beffc97	0.007323812
53	0x3db644b6	0.08899824
54	0xbc496d9f	-0.012294202
55	0x3dd82e82	0.10555746
56	0x3d16436a	0.036685385
57	0x3e1f952c	0.15584248
58	0x3d0fcf3e	0.03510975
59	0x3d635243	0.055498373
60	0x3e309af7	0.17246614
61	0x3e38f18d	0.18060894
62	0x3d71c00f	0.059021052
63	0xbe65ea8d	-0.22452755
64	0x3df55a24	0.119800836
65	0x3c746dc5	0.014918749
66	0xbdf5d9d5	-0.12004439
67	0x3d8cb8f4	0.068712145
68	0x3ac02c68	0.0014661672
69	0x3a807f92	0.0009803644
70	0x3c6da03f	0.014503538
71	0xbd48ba0e	-0.04900556
72	0xbd120a61	-0.03565443
73	0xbe2b33e3	-0.16719012
74	0xbd4c059c	-0.049810037
75	0x3bc8963b	0.0061214245
76	0x3dec82f7	0.11548417
77	0x3deaf120	0.11471772
78	0x3d814453	0.0631186
79	0xbc599120	-0.013279229
80	0x3bec976c	0.0072201993
81	0xbcd30d10	-0.025763065
82	0x3d940c2e	0.072288856
83	0xbe192e31	-0.14959027
84	0xbd39bf70	-0.045348585
85	0x3dea6edc	0.11446926
86	0x3df8ef7c	0.12155053
87	0x3ddc16f1	0.10746563
88	0xbcd1ee2b	-0.025626263
89	0x3cdb8de1	0.026801052
90	0x3d846b56	0.06465785
91	0xbd84b0e1	-0.064790495
92	0xbbdf15b9	-0.0068080095
93	0xbd9ba62b	-0.076000534
94	0x3e4ec0b5	0.201907
95	0xbd4bfb3e	-0.04980015
96	0x3d0c6c2c	0.03428285
97	0xbcc8a152	-0.024490986
98	0x3e1376f5	0.14400847
99	0xbd5f4917	-0.054513063
100	0xbb977162	-0.0046216706
101	0x3da8b839	0.08238263
102	0x3e2b5bdc	0.1673426
103	0xbe038706	-0.12844476
104	0xbc2e0708	-0.010621794
105	0xbdcf4ddc	-0.10122272
106	0x3c8d2dcc	0.017233752
107	0x3c5fbce9	0.01365588
108	0xbdf5a462	-0.11994244
109	0x3c84faa4	0.016232796
110	0x3d09977b	0.03359173
111	0xbd88d166	-0.066805646
112	0xbb1adb8a	-0.002362939
113	0x3e3f288a	0.18667808
114	0xbe1e7fb8	-0.15478408
115	0xbdc52e53	-0.09627976
116	0x3c961ee7	0.018325282
117	0xbd2f255d	-0.04276024
118	0x3d86fc5d	0.06591103
119	0xbdd7ca55	-0.10536639
120	0x3d162862	0.036659606
121	0x3d9f1ec9	0.07769544
122	0x3dc5069f	0.096204035
123	0xbe2c7400	-0.16841125
124	0x3e61269a	0.21987382
125	0x3e7400d7	0.23828445
126	0x3db411b5	0.0879244
127	0x3d9ef5d4	0.07761732
128	0xbc626d12	-0.01381995
129	0x3c851ac1	0.016248109
130	0x3e4d7517	0.20064197
131	0x3e3dc284	0.18531233
132	0xbe9c613d	-0.30542937
133	0xbe819e87	-0.2531626
134	0x3e5afb9d	0.21385045
135	0xbd4e7892	-0.050407954
136	0x3d278b1e	0.040904157
137	0x3e515241	0.20441534
138	0x3e5815a0	0.21102
139	0x3d3add8f	0.04562145
140	0xbc50134c	-0.012699913
141	0xbdd752c5	-0.10513834
142	0xbdda353d	-0.10654686
143	0xbd4399a5	-0.04775395
144	0x3c52d62d	0.012868446
145	0x3d972b19	0.07381267
146	0x3d9a45c7	0.0753284
147	0xbe1db6aa	-0.15401712
148	0xbd94f5cc	-0.072734445
149	0x3d59fef5	0.05322166
150	0xbdf40892	-0.11915697
151	0x3d828022	0.06372096
152	0x3d925212	0.0714456
153	0xbd68e2c2	-0.056856878
154	0xbd4219c5	-0.047387857
155	0x3d1317e2	0.03591145
156	0x3ce9a169	0.02851935
157	0x3d9b5b66	0.07585792
158	0xbdf2cb84	-0.11855224
159	0xbd1f7e91	-0.038939063
160	0x3d9bed0b	0.07613572
161	0x3babde81	0.0052450304
162	0x3d8daf5c	0.06918213
163	0xbde547e4	-0.11195353
164	0xbe0c4441	-0.13697912
165	0xbdc7ecb0	-0.097619414
166	0xbd45f3b5	-0.04832812
167	0xbda2f6e6	-0.079572484
168	0xbd3661eb	-0.044526976
169	0xbe1ac3cc	-0.15113753
170	0xbde77604	-0.113018066
171	0xbd48b44b	-0.049000066
172	0xbdddab97	-0.10823744
173	0x3d29752f	0.04137152
174	0xbe4a8231	-0.19776227
175	0xbe0d8f54	-0.13824207
176	0xbc12c000	-0.008956909
177	0xbe596da8	-0.21233237
178	0xbe04b0f8	-0.12958133
179	0xbe54c534	-0.20778352
180	0x3dcbe15c	0.09955093
181	0xbcd596a4	-0.026072808
182	0x3c5d153f	0.013493835
183	0xbd19ed30	-0.037579715
184	0xbd3bd03a	-0.045852877
185	0xbda983ea	-0.08277114
186	0x3be4083d	0.00695899
187	0x3cee05ad	0.02905544
188	0xbd7f8ce5	-0.062390227
189	0x3c99dc9a	0.018781949
190	0xbdf6f33c	-0.12058112
191	0xbc28fcc6	-0.010314172
192	0xbb027069	-0.0019903427
193	0x3d82b998	0.063830554
194	0xbe206f69	-0.156675
195	0xbcc9f76c	-0.024654113
196	0xbdef0d94	-0.11672512
197	0x3ce7d5e1	0.028300228
198	0xbd6b41a4	-0.057435647
199	0xbcecdab8	-0.028912887
200	0x3c87cba9	0.016576605
201	0x3da7dde6	0.08196621
202	0xbc42a03c	-0.011879023
203	0xbdcd56a4	-0.10026291
204	0xbde5ec21	-0.11226679
205	0x3d5a24c2	0.05325771
206	0x3b6fda40	0.0036598593
207	0xbccb3270	-0.024804324
208	0xbca7355c	-0.020411186
209	0xbb03bff4	-0.0020103427
210	0xbe10c0bd	-0.14136024
211	0xbcb7a786	-0.022418749
212	0xbcccfd7c	-0.025023215
213	0xbbff681b	-0.0077943928
214	0xbdab9c57	-0.08379429
215	0x3a9b97e2	0.0011870826
216	0x3d4e3efb	0.05035303
217	0x3d443c33	0.047908973
218	0xbda206f4	-0.079114825
219	0x3c5d6ab6	0.013514211
220	0x3e202fd9	0.15643252
221	0x3e019d64	0.12657696
222	0x3d8b6373	0.06806078
223	0xbc8b4b99	-0.017003821
224	0x3d4e452c	0.050358936
225	0xbe431375	-0.19050391
226	0xbe397024	-0.18109185
227	0x3d500f69	0.050795946
228	0xbdc58106	-0.0964375
229	0xbca5143a	-0.020151246
230	0xbe029ad7	-0.12754379
231	0xbdd0cd04	-0.101953536
232	0x3ce77fed	0.028259242
233	0x3d86cda5	0.06582192
234	0xbd442d38	-0.047894686
235	0xbdf27091	-0.118378766
236	0xbd4862e3	-0.04892243
237	0xbd03ad87	-0.03214791
238	0xbe3cfcf2	-0.18455866
239	0xbcce29ea	-0.02516647
240	0xbe6d013a	-0.23144999
241	0xbe3a47f9	-0.18191518
242	0x3d1ba23e	0.037996523
243	0x3e0a7af3	0.13523464
244	0x3eb7bdb7	0.35886928
245	0x3e0131c1	0.12616636
246	0x3e8b4b6d	0.27205983
247	0x3e4f4c69	0.20243992
248	0x3e233c1f	0.15940903
249	0x3e12d4bd	0.14338966
250	0x3e8bda0a	0.27314788
251	0x3e87ad0d	0.26499215
252	0x3d783de7	0.06060591
253	0x3d9beebe	0.07613896
254	0x3def9b95	0.11699597
255	0x3eb1e96d	0.34748402

encoder.rnn.weight_hh_l0_reverse f4 [192, 64]
0	0xbd5ff873	-0.0546803
1	0x3de520be	0.11187886
2	0x3de6640a	0.1124955
3	0xbe121652	-0.14266327
4	0xbcc2915d	-0.023750955
5	0x3db74ae6	0.089498326
6	0x3a08b3d0	0.00052147824
7	0xbe4c5b1c	-0.1995663
8	0xbdc32e3d	-0.095303036
9	0xbe135e34	-0.14391404
10	0xbca67a34	-0.020321943
11	0xbd939669	-0.07206423
12	0x3d6a41bc	0.057191595
13	0x3dc49464	0.09598616
14	0xbe14a2c6	-0.14515218
15	0xbe1bd74d	-0.1521885
16	0x3cbf8202	0.023377422
17	0xbdc335a7	-0.09531718
18	0x3bef659c	0.007305814
19	0x3d41bdb4	0.047300056
20	0xbd2b9c1d	-0.041896928
21	0x3de7f568	0.113261044
22	0xbd151a8f	-0.03640228
23	0xbd8c8c15	-0.06862656
24	0xbb747461	-0.0037300813
25	0xbe83a358	-0.2571056
26	0xbd558193	-0.052125525
27	0x3c530e43	0.012881818
28	0xbd5f1116	-0.054459654
29	0xbe3b333a	-0.1828126
30	0xbe18fe5b	-0.14940779
31	0xbcd8fe11	-0.026488336
32	0xbd96eb06	-0.07369046
33	0xbe478ef2	-0.19488123
34	0xbcefc2b9	-0.029267656
35	0x3c88a560	0.01668042
36	0x3dbaa815	0.0911409
37	0x3d37a437	0.04483434
38	0xbde24c00	-0.11049652
39	0xbddba131	-0.10724104
40	0x3ca7461d	0.020419175
41	0x3d25b106	0.040452026
42	0xbdebdd78	-0.11516851
43	0x3cbb46fd	0.022860998
44	0x3a381425	0.0007022045
45	0x3dece444	0.11566976
46	0x3df9bde7	0.12194424
47	0xbb9fba6e	-0.004874519
48	0x3d1477bd	0.036247004
49	0xbcdc02dd	-0.026856834
50	0x3dd5a022	0.104309335
51	0xbd307667	-0.043081667
52	0x3bbd72e2	0.0057815174
53	0xbd901603	-0.070354484
54	0xbdc25d8c	-0.09490499
55	0x3dc7904a	0.09744318
56	0xbd0d8a32	-0.03455562
57	0xbde78ab6	-0.11305754
58	0xbdbd826a	-0.0925339
59	0x3d8745d8	0.066051185
60	0x3db66f30	0.08907926
61	0xbdf5d32c	-0.120031685
62	0x3d2a981d	0.041648973
63	0x3dd91f67	0.10601693
64	0xbe610f77	-0.21978556
65	0xbd8103fa	-0.062995866
66	0xbce25d70	-0.027632445
67	0x3cb1a621	0.021685662
68	0xbdcddc1d	-0.10051749
69	0x3dcc7caf	0.09984719
70	0x3dd60c51	0.10451568
71	0x3dc1fc05	0.09471897
72	0x3e4f77dd	0.20260568
73	0x3c882c6f	0.01662275
74	0x3e3a7839	0.18209924
75	0xbd9bcdc7	-0.07607608
76	0xbd7e522c	-0.062090084
77	0xbe0efc6b	-0.13963477
78	0xbb3e9339	-0.002907945
79	0x3d5d64e3	0.05405129
80	0xbc4b821f	-0.01242116
81	0x3dbe0d0b	0.092798315
82	0xbdf0afb9	-0.117522664
83	0x3deebf10	0.11657536
84	0x3e206581	0.1566372
85	0x3cd801ea	0.0263681
86	0x3dde580a	0.10856636
87	0x3dc4321a	0.095798686
88	0x3d042b4d	0.032267857
89	0x3e681120	0.22662783
90	0x3e2862d8	0.16443956
91	0x3e133a97	0.14377819
92	0x3df4ae84	0.11947349
93	0x3e8dc25c	0.27687347
94	0x3dac6e1d	0.0841944
95	0x3dfdbd26	0.12389593
96	0x3dee8b47	0.11647659
97	0x3d7f4d11	0.062329356
98	0x3dd06f2c	0.10177454
99	0x3c931824	0.017955847
100	0xbe732fce	-0.23748705
101	0xbde1b72d	-0.11021266
102	0x3daefd7d	0.08544443
103	0xbdfb95cf	-0.12284433
104	0xbe1f8816	-0.15579256
105	0x3d6b533d	0.05745243
106	0x3e726f14	0.23675185
107	0x3a541900	0.00080908835
108	0xbe2e48f3	-0.17020015
109	0xbdf1dc0b	-0.11809548
110	0xbb806328	-0.0039180703
111	0xbe4c91cc	-0.19977492
112	0x3da0d7fa	0.07853694
113	0x3de0b1bb	0.109713994
114	0xbd39dc65	-0.0453762
115	0x3d3ab3bc	0.045581564
116	0xbe5499c2	-0.20761779
117	0xbcc11013	-0.023567235
118	0xbe30bf46	-0.17260465
119	0x3de5984e	0.112106904
120	0xbcd7562c	-0.026286207
121	0xbcc54777	-0.024081929
122	0x3dcd5312	0.1002561
123	0xbe328cde	-0.17436549
124	0x3e152b2d	0.14567252
125	0x3d43e674	0.0478272
126	0xbd9dd2df	-0.07706236
127	0xbe0fe2e9	-0.14051403
128	0xbbe6f968	-0.0070487745
129	0x3d83ba06	0.064319655
130	0xbc40b6de	-0.011762349
131	0x3cbe0eb1	0.023200365
132	0xbdb1d5d2	-0.08683361
133	0xbd557bec	-0.052120134
134	0x3e835b39	0.25655535
135	0x3df4d2ab	0.11954244
136	0x3da3ad9f	0.079921
137	0x3c971b1f	0.01844555
138	0x3c9981ea	0.018738706
139	0x3c87b481	0.016565563
140	0xbd815a9a	-0.06316109
141	0xbe965f60	-0.2936964
142	0x3d1e6fe5	0.03868093
143	0x3d326366	0.043551825
144	0xbe07dad3	-0.13267069
145	0xbdace703	-0.084424995
146	0xbc33f1c9	-0.010982939
147	0x3e48d5f4	0.19612867
148	0x3ce92079	0.028457867
149	0xbde4a2cf	-0.11163866
150	0x3e842bc3	0.25814638
151	0x3dce0cd6	0.10061042
152	0x3d4d0739	0.050055716
153	0xbdf531e5	-0.11972407
154	0xbd4ce549	-0.05002335
155	0x3dd30128	0.10302955
156	0xbe21a37f	-0.15785025
157	0x3e2600e9	0.16211285
158	0xbce937d6	-0.028469007
159	0xbca5f91f	-0.020260392
160	0x3d97ca43	0.07411625
161	0x3d651123	0.055924546
162	0x3db9364e	0.09043561
163	0xbd33f135	-0.043931205
164	0xbe1f3496	-0.15547404
165	0xbd9971b5	-0.07492391
166	0x3c97310d	0.018456006
167	0xbd212ded	-0.03935044
168	0xbc099d3f	-0.008399307
169	0x3d91a0d2	0.07110752
170	0xbc015700	-0.007894278
171	0xbc809127	-0.015694214
172	0xbc013d2f	-0.007888122
173	0xbc93be99	-0.01803522
174	0xbd813348	-0.06308609
175	0xbe155497	-0.1458305
176	0x3d1cd1d4	0.038286045
177	0x3e92d3f2	0.28677326
178	0xbddc3b9c	-0.10753557
179	0x3dbeef52	0.093229905
180	0xbcf1cc40	-0.02951634
181	0xbd712272	-0.05887074
182	0xbd99f6cf	-0.07517778
183	0xbdec6c8f	-0.115441434
184	0x3cd5617d	0.026047463
185	0x3dbe8677	0.09302991
186	0x3d855f72	0.065123454
187	0x3c88692a	0.016651709
188	0x3e1935d3	0.14961939
189	0x3dc4d1dd	0.09610341
190	0xbe777cad	-0.24168654
191	0xbdabb219	-0.08383579
192	0xbdcc8736	-0.09986727
193	0x3e049d9e	0.12950751
194	0x3e49bf7d	0.19701953
195	0x3e0b1ead	0.1358592
196	0x3d880d72	0.066431895
197	0xbdb1d7b0	-0.08683717
198	0xbd990413	-0.0747148
199	0xbd6a1b51	-0.057154957
200	0xbcd2ba0c	-0.02572348
201	0x3e19159b	0.14949648
202	0x3db41c3c	0.08794448
203	0xbdc3d9f6	-0.09563057
204	0x3c9fced7	0.019507809
205	0x3c8086a0	0.015689194
206	0xbda14f0e	-0.078764066
207	0x3d684e40	0.05671525
208	0x3e132f96	0.14373621
209	0x3dad5514	0.08463493
210	0xbd61c372	-0.05511803
211	0x3dac09a4	0.08400276
212	0x3d5b8a0f	0.05359846
213	0x3d59c77e	0.053168766
214	0xbd90d220	-0.07071328
215	0x3e18f5e7	0.14937554
216	0x3d1af9b1	0.03783578
217	0xbc98d22f	-0.01865491
218	0x3d58f930	0.05297202
219	0x3dd000a8	0.10156375
220	0x3c26e626	0.010186708
221	0xbc9ba69e	-0.019000348
222	0x3dd76422	0.10517146
223	0xbb20e73b	-0.0024551887
224	0x3dc44727	0.09583884
225	0x3db9baea	0.09068854
226	0xbd589a76	-0.05288168
227	0xbcdf9d6f	-0.02729675
228	0xbd02048e	-0.031742625
229	0xbc82ed1d	-0.015982205
230	0x3ce35357	0.0277497
231	0x3dd3601e	0.10321067
232	0x3d3f1981	0.04665518
233	0xbd94add2	-0.07259716
234	0x3ddcf5b3	0.10789051
235	0x3e3021d6	0.17200407
236	0x3dbd8c05	0.09255222
237	0x3d44caed	0.048045088
238	0x3d3e95f6	0.046529733
239	0x3dbaaad8	0.09114617
240	0x3e4cffdd	0.20019479
241	0x3d6f7908	0.058465034
242	0x3bad4328	0.0052875467
243	0x3d12730d	0.035754252
244	0x3d9375a0	0.072001696
245	0xbc2da078	-0.010597341
246	0xbde4aa72	-0.11165322
247	0x3cccb947	0.02499069
248	0x3d694f5e	0.056960456
249	0x3db5842c	0.088631004
250	0xbd8ad873	-0.06779566
251	0xbd4bf819	-0.04979715
252	0x3d6a0fd0	0.057143986
253	0xbd32d45b	-0.04365955
254	0x3d8b0a57	0.067890815
255	0xbdd2ff03	-0.10302546

encoder.rnn.bias_ih_l0_reverse f4 [192]
0	0x3c0d366b	0.008618931
1	0x3d71f434	0.05907078
2	0xbd017a35	-0.031610686
3	0xbd91fbe5	-0.07128123
4	0xbcd8ef34	-0.026481248
5	0x3c85d912	0.016338859
6	0x3c22dcc9	0.009940335
7	0x3de30688	0.1108523
8	0x3d8e1a09	0.069385596
9	0x3e2727f5	0.16323836
10	0x3e540e07	0.20708476
11	0x3d8cfaab	0.068837486
12	0xbdb8c626	-0.09022169
13	0xbe0e677f	-0.13906668
14	0x3c06a4e8	0.008218028
15	0x3d7c05c9	0.061528955
16	0xbd3ed90b	-0.046593707
17	0x3caf17dd	0.021373684
18	0x3d3f0528	0.046635777
19	0x3dd69de3	0.10479333
20	0x3b957f2f	0.0045622806
21	0xbb842b4e	-0.0040334826
22	0x3da119ad	0.078662254
23	0x3db01a48	0.08598763
24	0x3e0091d6	0.12555632
25	0x3d7fd188	0.062455684
26	0x3d3d6bb0	0.046245277
27	0x3ddf1a60	0.108937025
28	0x3c410407	0.011780745
29	0x3d2911ff	0.041276928
30	0xbe3caac1	-0.18424512
31	0x3dd8ef27	0.1059249
32	0x3d88316f	0.06650054
33	0xbd7ecfc3	-0.062209856
34	0xbd6929b5	-0.05692454
35	0xbe4e5e34	-0.20153123
36	0x3d0229bb	0.03177808
37	0x3deed09a	0.11660881
38	0xbe11c18f	-0.14233993
39	0xbda52021	-0.08062769
40	0x3dd92e93	0.106045865
41	0xbc4c818f	-0.012482061
42	0xbdceeddd	-0.101039626
43	0x3c0ec651	0.0087142745
44	0x3cb4a189	0.022049682
45	0x3cbd8551	0.02313486
46	0xbe16b63a	-0.14717951
47	0xbdc57553	-0.096415184
48	0xbdad5976	-0.08464329
49	0xbe220226	-0.15821132
50	0xbd95edd6	-0.07320754
51	0x3d97e6cf	0.0741707
52	0xbd5ebd24	-0.054379597
53	0x3db3a259	0.087712
54	0x3888bd46	6.52024e-05
55	0xbb611ed1	-0.0034350643
56	0x3db384fa	0.08765598
57	0x3d707313	0.058703493
58	0xbd6067a2	-0.054786332
59	0xbd6abec9	-0.057310853
60	0xbdb6af64	-0.08920172
61	0xbddb9542	-0.10721828
62	0xba8fa18b	-0.0010958178
63	0xbc27561d	-0.010213402
64	0xbd149958	-0.036279052
65	0xbdc51a36	-0.0962414
66	0x3e0e24de	0.13881251
67	0xbc76b843	-0.01505858
68	0x3d32827e	0.04358148
69	0x3de3c1fb	0.11120983
70	0xbd0b5a1d	-0.034021486
71	0x3d25d32d	0.040484596
72	0xbe20b2a1	-0.15693142
73	0xbd9a3d85	-0.07531265
74	0xba090115	-0.00052262965
75	0xbd31992e	-0.043358974
76	0xbdfa788d	-0.122300245
77	0xbe183a03	-0.1486588
78	0x3e23c6a4	0.15993744
79	0x3dc46d0f	0.09591114
80	0xbe1433dd	-0.1447291
81	0xbc626318	-0.013817571
82	0x3de25d1b	0.11052915
83	0x3cee21a3	0.029068774
84	0xbe336cea	-0.17522016
85	0x393cd028	0.00018006621
86	0x3d4e09d5	0.050302345
87	0x3d84b534	0.06479874
88	0xbd99ddad	-0.075129844
89	0xbd962756	-0.073317215
90	0x3e1201cb	0.14258496
91	0xbde3a151	-0.11114753
92	0x3df0d14c	0.1175867
93	0xbb035064	-0.002003693
94	0xbdb837e0	-0.08995032
95	0x3d59b6d3	0.05315287
96	0xbe01304e	-0.12616083
97	0x3ddbc811	0.10731519
98	0xbd8807b0	-0.06642091
99	0xbbb7a5a8	-0.0056044646
100	0xbe3dc649	-0.18532671
101	0xbce336bd	-0.027736062
102	0xbe078b83	-0.13236813
103	0x3df0cff7	0.11758416
104	0x3e1f4db3	0.15556984
105	0x3de1e678	0.110302866
106	0x3d5a82d6	0.05334743
107	0xbdc99887	-0.098435454
108	0xbdc39ba2	-0.09551169
109	0xbca276bf	-0.019832013
110	0xbb1cc756	-0.0023922524
111	0xbe0a23fa	-0.13490286
112	0x3d330b8d	0.043712188
113	0xbd8bc2d3	-0.06824269
114	0xbd8271bb	-0.063693486
115	0x3b0bc62d	0.0021327839
116	0x3de1b834	0.11021462
117	0xbdbd7211	-0.09250272
118	0x3dbeb97e	0.093127236
119	0xbe419a84	-0.189066
120	0x3c8e11f6	0.017342549
121	0x3c977880	0.018490076
122	0xbe373d42	-0.17894462
123	0xbda6fdc8	-0.08153874
124	0xbdbae559	-0.09125776
125	0xbcb82f45	-0.022483477
126	0x3db69b09	0.08916289
127	0xbd4e2cc6	-0.050335668
128	0x3e31edfb	0.17375939
129	0xbdcfdded	-0.10149751
130	0x3d084a54	0.03327401
131	0xbdbfa309	-0.09357268
132	0x3dea6e8f	0.11446869
133	0xbd64cc53	-0.05585892
134	0x3d36989c	0.044579133
135	0xbdd0e5c7	-0.102000766
136	0xbd1b5f5f	-0.03793275
137	0xbd8b323f	-0.06796693
138	0xbdd78b31	-0.105245955
139	0x3dbea130	0.09308088
140	0xbd3333bf	-0.04375052
141	0x3d8de598	0.06928557
142	0xbe0fbb2c	-0.14036244
143	0xbd9bc59d	-0.07606051
144	0x3d2ea762	0.042640097
145	0xbe2f2eab	-0.17107646
146	0xbdcc4e9c	-0.09975931
147	0x3d81aeaa	0.06332143
148	0xbe24b9b5	-0.16086467
149	0xbdb39e23	-0.087703966
150	0xbe07add6	-0.13249907
151	0xbda495d6	-0.080363914
152	0xbdfd2e30	-0.12362325
153	0xbd97cd3b	-0.074121915
154	0xbe054027	-0.13012753
155	0x3d7c65ee	0.061620645
156	0x3de8d868	0.11369401
157	0x3c105225	0.008808647
158	0xbd8f7872	-0.07005395
159	0xbd99f6d7	-0.07517784
160	0xbdfcb50b	-0.12339219
161	0x3b3890f6	0.0028162575
162	0xbe3afbc2	-0.182601
163	0xbdb9060e	-0.09034358
164	0x3e137bbd	0.14402671
165	0x3de6264d	0.11237774
166	0x3e131392	0.14362934
167	0xbb9ce471	-0.0047879745
168	0x3d1ae499	0.037815664
169	0xbe1eb63e	-0.15499207
170	0xbe090dde	-0.13384196
171	0x3c16537c	0.009175178
172	0x3c7e0604	0.015504364
173	0x3e117447	0.14204513
174	0x3da8ef96	0.082488224
175	0xbd84895b	-0.06471511
176	0x3dd31f7d	0.1030874
177	0xbda56586	-0.08076005
178	0xbd8afeea	-0.06786902
179	0xba924ed9	-0.0011162414
180	0x3e26fa19	0.16306342
181	0x3e322a54	0.1739896
182	0x3c8b3381	0.016992332
183	0xbd1b1281	-0.037859444
184	0xbd557d34	-0.052121356
185	0xbc4b6fe1	-0.012416811
186	0x3d990d27	0.07473212
187	0x3da665e9	0.081249066
188	0xbc2ac93d	-0.0104239555
189	0xbe2b121d	-0.16706128
190	0x3e0b26df	0.13589047
191	0x3d11fec0	0.03564334

encoder.rnn.bias_hh_l0_reverse f4 [192]
0	0x3d868149	0.06567628
1	0xbe071d02	-0.1319466
2	0xbdc35449	-0.095375605
3	0x3dacd5ed	0.084392406
4	0x3ba4b050	0.005025901
5	0x3cd94eba	0.026526798
6	0xbe073578	-0.1320399
7	0x3dab153a	0.08353658
8	0x3d8c5a49	0.06853158
9	0x3d7d9ba0	0.061915994
10	0x3b4d0afe	0.003128707
11	0x3d5ecae2	0.054392703
12	0x3de8124d	0.113316156
13	0xbd8b2e3a	-0.067959264
14	0xbd6c0521	-0.05762208
15	0x3d9ea4ee	0.077463016
16	0x3ca801d1	0.020508679
17	0x3d62527d	0.05525445
18	0xbc658296	-0.014008185
19	0x3df3b201	0.11899186
20	0x3dfe773e	0.124250874
21	0xbe299fb6	-0.16564831
22	0x3d72a048	0.059234887
23	0x3e12be59	0.14330424
24	0x3cd11f5c	0.025527649
25	0xbc51f66b	-0.012815098
26	0x3d594229	0.05304161
27	0x3d41e166	0.047334097
28	0xbbc72978	-0.0060779415
29	0x3db265d0	0.087108254
30	0xbdf9ba77	-0.121937685
31	0xbdc90a1d	-0.09816382
32	0xbddc9b56	-0.107718155
33	0xbda15caf	-0.07879006
34	0x3ae2f623	0.0017315786
35	0xbe086c5b	-0.13322584
36	0xbd54481c	-0.05182658
37	0xbdd04e33	-0.10171165
38	0xbdd16ef9	-0.102262445
39	0xbda3d603	-0.07999804
40	0xbdaff7d7	-0.085921936
41	0xbcb4006e	-0.021972861
42	0x3dc5ed34	0.096643835
43	0xbe2172da	-0.15766469
44	0xbc708fa2	-0.014682682
45	0x3d27f213	0.041002344
46	0xbe09c057	-0.13452278
47	0xbc3763a4	-0.01119319
48	0xbdcb6e18	-0.09933108
49	0x3c66c324	0.014084611
50	0x3d779784	0.06044723
51	0x3df18099	0.11792106
52	0x3cb63b02	0.022244934
53	0x3da3232b	0.07965692
54	0x3b8bcf62	0.0042666653
55	0x3dc72e54	0.09725633
56	0xbcfe48df	-0.031040607
57	0x3d7d8fcc	0.061904714
58	0xbe08ede8	-0.13372004
59	0xbe001ba0	-0.12510538
60	0xbd794262	-0.060854323
61	0x3cf44823	0.029819554
62	0x3d75177e	0.059836857
63	0x3deb07ea	0.11476119
64	0x3df23b78	0.11827749
65	0xbdf720d8	-0.12066811
66	0x3e0017eb	0.12509124
67	0xbdbea961	-0.0930965
68	0xbe0ad25d	-0.1355681
69	0xbd9c7564	-0.07639578
70	0x3db7608f	0.08953964
71	0x3e62c7ce	0.22146532
72	0xbe622788	-0.22085392
73	0x3d348d3e	0.04408001
74	0xbddbd7f9	-0.10734553
75	0x3c661db5	0.014045169
76	0xbe200728	-0.1562773
77	0x3cafb779	0.021449791
78	0xbc6248fe	-0.013811348
79	0x3dcce8ee	0.10005365
80	0xbe92c2fc	-0.28664386
81	0xbdcdcbee	-0.10048662
82	0x3d73b668	0.059500128
83	0x3df68f2d	0.12039027
84	0xbd862efd	-0.06551931
85	0xbb05d79c	-0.0020422703
86	0x3dab963f	0.083782665
87	0x3d769fc2	0.06021095
88	0x3cab0cd3	0.020880139
89	0x3d292763	0.041297328
90	0x3db94b3d	0.09047554
91	0x3d96cf9a	0.073638156
92	0x3d20347a	0.039112546
93	0x3bcf527f	0.006326973
94	0xbd65cd29	-0.05610386
95	0x3d32438d	0.043521453
96	0x3d58b7c0	0.052909613
97	0x3d4282e1	0.047488097
98	0x3c24aa59	0.01005038
99	0x3ce543f6	0.027986508
100	0xbe231c17	-0.15928684
101	0x3d58e785	0.05295517
102	0x3cb40649	0.021975653
103	0x3db54d4a	0.08852632
104	0x3e1051bf	0.14093684
105	0x3d5a1570	0.0532431
106	0x3d594555	0.053044636
107	0xbcea54ef	-0.028604953
108	0xbdf5835f	-0.11987948
109	0xbcbb149f	-0.022836981
110	0xbce311e0	-0.027718484
111	0x3ca731c2	0.020409469
112	0x3e1b8315	0.15186723
113	0x3da84422	0.0821612
114	0x3db26d67	0.08712273
115	0xbd0e92ea	-0.034808077
116	0x3c344161	0.011001916
117	0x3d0dc51d	0.03461181
118	0xbad29b00	-0.0016067922
119	0xbe59e5db	-0.21279089
120	0xbc4d88e7	-0.012544847
121	0xbe3c3896	-0.18380961
122	0xbe345b0a	-0.17612854
123	0x3e02a5ea	0.12758604
124	0xbddaec13	-0.10689559
125	0x3e1bc5d2	0.15212181
126	0xbdc8a468	-0.09796983
127	0x3c5c7aa2	0.013456972
128	0x3e23abb7	0.15983473
129	0xbd967fe1	-0.0734861
130	0xbddccfab	-0.10781797
131	0xbe032265	-0.12806089
132	0xbddb8f80	-0.1072073
133	0x3de6123a	0.11233945
134	0xbdaa639c	-0.0831978
135	0xbe099b2e	-0.13438103
136	0xbdd620e7	-0.104554944
137	0xbdcb9bd5	-0.09941832
138	0xbe24e700	-0.16103745
139	0xbd55b88e	-0.05217796
140	0xbc940231	-0.018067451
141	0x3dc8b901	0.09800912
142	0xbe210a1d	-0.15726514
143	0xbd83ff95	-0.06445233
144	0xbd78ae23	-0.060712945
145	0xbdddfe98	-0.108395755
146	0xbdc1d2ea	-0.09464057
147	0xbdb7dd29	-0.0897773
148	0xbe082d0d	-0.13298436
149	0xbde71fbb	-0.11285349
150	0xbe1f90ac	-0.15582532
151	0xbdf96bef	-0.1217879
152	0xbd9a69b2	-0.07539691
153	0x3d334ec5	0.043776292
154	0xbe16b41c	-0.14717144
155	0xbe1a40c0	-0.15063763
156	0xbdb90901	-0.090349205
157	0xbd770974	-0.06031175
158	0x3dccd757	0.1000201
159	0xbe0e0315	-0.13868363
160	0xbe0a2cef	-0.13493703
161	0xbd966d80	-0.07345104
162	0xbe116144	-0.1419726
163	0xbd52d851	-0.051475827
164	0x3d649506	0.055806182
165	0xbd6fb6c5	-0.058523912
166	0x3cb2ffdd	0.02185052
167	0x3b8fa174	0.0043832604
168	0x3dd53ebe	0.10412358
169	0x3cd1aaac	0.025594078
170	0xbdebd46b	-0.11515125
171	0xbdaa6a01	-0.08321
172	0xbad753f6	-0.001642822
173	0x3e2824d3	0.16420297
174	0x3c9e9e71	0.01936266
175	0xbb987e70	-0.0046537444
176	0x3dba0cab	0.090844475
177	0x3d5e30f9	0.054245923
178	0x3d90da56	0.07072894
179	0xbd9d34fd	-0.07676122
180	0x3d49c1d3	0.04925711
181	0x3e208578	0.15675914
182	0xbdd2541c	-0.10269949
183	0x3b85fab6	0.004088725
184	0xbd1ec8b3	-0.03876562
185	0xbe23669f	-0.15957116
186	0xbce3414f	-0.027741103
187	0xbd70e3c3	-0.05881096
188	0x3bca1079	0.0061665145
189	0xbb9ea356	-0.0048412485
190	0xbb60dc43	-0.0034310974
191	0x3deb069d	0.11475871
